best_model.pt (torch, 822882 bytes, 26 tensors)

model.0.0.weight f4 [32, 1, 3, 3]
00000000: 6072 9a3d 22af 233e f3ca 9e3e 6743 04be
00000010: e7d1 75be e1cb 4cbd 1187 02bb 47da 31bd
00000020: 3718 a53d 14c4 213e f42d b53d c19d 803e
00000030: a18d b73c 0fa6 333e 556f 233e a26e 693e
00000040: 96fc 4dbc 4a15 853d 8705 2fbe 7798 71bd
00000050: 5ac1 56be a7cc 75be 73f8 32be 4b53 89be
00000060: 9ff8 d23d af2a 8dbe b1d3 9fbe 1bd2 2bbe
00000070: 2c49 62be 07d4 38be b439 b7bd 541a 393e
00000080: 4af5 77be 62bf 98be 5399 39bd 8527 6cbe
00000090: fa65 a93d 2c32 3ebe 793b 8c3e 23d6 b03c
000000a0: b078 f13d 01cc a6be 50b9 ea3d 0d55 8abc
000000b0: a063 0e3d c056 6b3e 69bc 8abe 22f6 9b3e
000000c0: 4654 9d3e aec6 823d 0346 e2bd 668a dd3d
000000d0: e1d4 56be f8da 063d 98bb 7dbe a6dd 63be
000000e0: 1db7 9cbe 449e 80be 532c 99be 26b2 963e
000000f0: 8dcf a3be c27e 5cbd 95c1 9b3e f0c0 1cbe
00000100: 4806 8dbe ab40 b53d 3135 67be bbc7 08be
00000110: 973d 05be f00f f2bd 6607 6ebc 4c78 31be
00000120: d2cb 473e 3466 3dbe 4aef b9bd e569 693e
00000130: 9368 9c3d 55f9 833e 62d6 88bd 074a 203d
00000140: 608a 2fbd cb7d 033e 0c9d 92be 5616 af3e
00000150: 20a6 963e 65db 543e 577d 233e 9de3 323e
00000160: 921d 62be 2c9c 85be 7ec5 f5bd 1755 293d
00000170: 1b9b 64bd cb33 6b3e 47ae 3a3e fafe 9c3d
00000180: c5da 19be af04 873e ca30 9f3e fac7 2dbc
00000190: e2e7 c4bd a9a0 b03e 6a39 713e 5d1b 27be
000001a0: f041 0cbe fce0 2cbe d467 b93d e237 14be
000001b0: 2372 883e 861e 2fbd ffe1 c8bd fc26 6c3e
000001c0: 805e 4abd 8a7a a4bd e1d2 5e3e 39f0 6bbe
000001d0: c49e 6c3e c4de 47be f92d 983e 9ce5 523e
000001e0: 5172 15be 21f7 9c3e a5ea 353e 5b7d af3d
000001f0: 8aa9 61be 6dd7 82bd 208f 78be b2f5 83be
00000200: a63d 3f3e bdd1 523e 6835 1d3e cc41 07be
00000210: 3dca c83a 4bfa 803e 3a12 24be 1303 903e
00000220: c97b 3d3e 7f12 563e 7abe a53e bb9f 013e
00000230: 6814 993e 253f 0c3e 83ce ea3d d72a 893e
00000240: 2a43 00be b98c bb3d 4211 ffbd dc56 60be
00000250: a0ae dc3c aa18 9cbe 9109 d3ba 90bd c3bc
00000260: a30f 9d3e 6189 e93d 7de1 b53d ef81 31be
00000270: 3066 25be 3c5d b4bb 6e30 953e 6f3a 1e3e
00000280: 418d 13bd 3e69 49be 1ca1 41be 50a5 5f3e
00000290: 230f c83d fe78 4cbe c264 563e 6d41 90be
000002a0: 30e0 6b3d d39e 893e eef9 6fbe 766f 8fbe
000002b0: fe29 59be f7a8 c8bd b3ad 4ebe c2c7 963c
000002c0: 1cf3 9cbe 3bde 9abe b0e4 1e3e 35e1 08be
000002d0: d13f 933e ca1c ad3c d043 983d ae8d 12be
000002e0: bb45 85be 4595 123c 2112 18be 6502 493e
000002f0: 531c 5a3e 6c76 9dbe 31ed 953d 31af 313e
00000300: e7ff c8bd fcd8 2ebe f289 df3b a215 f5bb
00000310: 7b2f 8e3e 3d37 05be 6362 dabd 7b5f 3dbd
00000320: 1197 9dbe 0727 e43c 213b 62be 0734 47bc
00000330: 191b c8bc 223a 9f3e 296e 53be ceff 49be
00000340: 9b50 913e 3464 3dbe 7eb1 743e fb85 a13e
00000350: f49d e63d 65a7 08bd f1e9 a63e 5a43 8ebe
00000360: cb2f 95be b8df c7bd f2be 8f3e 99c8 053d
00000370: 1250 123e a8f6 873e 5747 93be 27a3 56be
00000380: 2840 95be 3570 843e 721b febc 3faa 983c
00000390: 6800 263e 81f8 14be b1da 6f3d 56dc 9ebe
000003a0: 69f1 473e 30ca 59be b064 7bbd c717 58be
000003b0: 89e4 e93d 1773 5bbe e787 96ba daf2 333d
000003c0: ac23 ad3d 2d46 bfbd 18ab 4cbe 3eb6 213e
000003d0: 5c6d 6e3d 683e 9e3e 1918 a73c fa8d 3cbe
000003e0: 64d2 e5bd 8636 9f3e 158a 44be 7ddc a53e
000003f0: 1e6d 9b3e 97db 7abe c368 9d3e b469 9c3e
0.075413465 0.15984777 0.31014213 -0.12916337 -0.24005853 -0.04999912 -0.0019916932 -0.043421056
0.08061259 0.15797454 0.088466555 0.25120357 0.022406401 0.17543815 0.15960439 0.2279611
-0.012572428 0.06498201 -0.17091952 -0.058983292 -0.20972195 -0.2400385 -0.17477588 -0.2682136
0.10301327 -0.27571627 -0.31216195 -0.16779368 -0.22098225 -0.18049632 -0.08946553 0.1807645
-0.24214664 -0.29833513 -0.045312237 -0.2306195 0.082714036 -0.18573827 0.27389124 0.021586483
0.117905974 -0.32577518 0.11461127 -0.016886258 0.03476298 0.22982311 -0.2709687 0.30461222
0.30728358 0.063855514 -0.1104851 0.10817413 -0.20979644 0.03292367 -0.24778593 -0.22252521
-0.30608454 -0.25120747 -0.2991663 0.2943279 -0.31994286 -0.053831823 0.3042113 -0.15307975
-0.27543855 0.08850225 -0.22578885 -0.13357441 -0.13011776 -0.11819446 -0.014528131 -0.17331046
0.19511345 -0.18496019 -0.09078844 0.22794302 0.076371334 0.25776163 -0.06681515 0.039133098
-0.042856574 0.12840955 -0.28635442 0.34196728 0.29423618 0.20786817 0.15965782 0.1746964
-0.22081593 -0.26095712 -0.12000559 0.041340914 -0.055811983 0.22968976 0.18230544 0.076658204
-0.1502486 0.2637076 0.3109191 -0.01060676 -0.09614541 0.34497574 0.23557058 -0.16319032
-0.13697028 -0.168827 0.09053007 -0.14474443 0.2664958 -0.04275372 -0.0980873 0.23061746
-0.04940653 -0.08031185 0.21760131 -0.23040856 0.2310744 -0.19518572 0.29722574 0.20595402
-0.1459439 0.30657294 0.17765291 0.085688315 -0.2203733 -0.063887455 -0.24273348 -0.25773388
0.18675861 0.20587821 0.15352404 -0.13208693 0.0015319061 0.25190958 -0.16022578 0.28127345
0.18504252 0.20905493 0.32371885 0.12658589 0.2989838 0.13695963 0.1146517 0.26790497
-0.12525621 0.091577 -0.124544635 -0.21908134 0.026938736 -0.30487567 -0.0016100873 -0.023894101
0.30675992 0.11403156 0.08880899 -0.17334722 -0.16152263 -0.0055042785 0.2913851 0.15451978
-0.036023382 -0.19669053 -0.18909115 0.21840405 0.09768512 -0.1996803 0.20936874 -0.28174916
0.05758685 0.26878986 -0.23435184 -0.28014725 -0.21207425 -0.097978525 -0.20183448 0.018405799
-0.30654228 -0.30247673 0.15516925 -0.1336716 0.28759626 0.021131892 0.07434809 -0.14311859
-0.26029763 0.008946721 -0.14850666 0.1962982 0.21299867 -0.3075441 0.07320631 0.17351986
-0.098144345 -0.1707496 0.0068218643 -0.0074793855 0.277706 -0.13009353 -0.10663297 -0.046233635
-0.30779317 0.027850641 -0.22092868 -0.0121584 -0.024426984 0.3109904 -0.20647492 -0.19726488
0.2838181 -0.18495256 0.23895833 0.3154753 0.11260596 -0.033362765 0.32600358 -0.2778576
-0.29138026 -0.09759468 0.28075367 0.032662008 0.14288357 0.2655537 -0.28765365 -0.20960675
-0.2915051 0.25866857 -0.031018946 0.018635867 0.16211092 -0.14547922 0.05855817 -0.31027478
0.19525684 -0.21268535 -0.06137532 -0.2110282 0.11420543 -0.21430622 -0.0011484594 0.043932773
0.084540695 -0.09339557 -0.19987142 0.15792176 0.058209762 0.30906987 0.020397233 -0.18413535
-0.112217695 0.31096286 -0.19193299 0.32394782 0.30356687 -0.2449783 0.3074399 0.30549395

model.0.0.bias f4 [32]
00000000: c4e6 4fbe 0b7b babd 3b65 90be 1b31 993e
00000010: 4710 49be b595 313e d95e 89be 3d29 a13e
00000020: cf8f 03bd 9f2a 9dbe fac9 72bd ae3c 493e
00000030: e0b1 a1be c1ea 23ba 9ba9 093e fbe5 32be
00000040: ab3f 9a3d 9b68 45be e16e 2d3e 9b95 303d
00000050: 6d3c 58be c5f4 8a3e b32f 5fbe 8216 7b3e
00000060: 8be7 8f3e abc3 4bbe d57f 3ebe 1bd6 cd3d
00000070: 2836 d7bd 9d58 843d cdfe c0bc 551c 253e
-0.20302874 -0.091055 -0.28202233 0.29920277 -0.19635116 0.17342265 -0.26830176 0.31476775
-0.03211957 -0.3069658 -0.05927465 0.19652054 -0.3158102 -0.00062529376 0.13443606 -0.17470543
0.07531675 -0.19278185 0.16936828 0.043111425 -0.211168 0.2713987 -0.2179554 0.24520305
0.2810634 -0.1989886 -0.18603452 0.10050603 -0.10508376 0.06462214 -0.023558998 0.16124089

model.0.2.weight f4 [32]
00000000: 59a8 7b3f 851e 7f3f f078 7d3f fcb4 7d3f
00000010: a78c 843f 5380 7d3f 3b4b 7f3f ade1 7d3f
00000020: 03ce 793f b2af 7d3f 99e2 7c3f 2602 7f3f
00000030: a571 7e3f add2 783f 4815 803f 034d 7e3f
00000040: 51c7 7d3f 8096 833f 9155 813f 769b 7a3f
00000050: 3728 823f 7f89 7c3f b98f 7e3f 5612 803f
00000060: bf30 7a3f 42b2 7f3f 83b0 7f3f 1188 803f
00000070: f359 7c3f f7ac 7f3f 72cd 7c3f 8763 803f
0.98303753 0.99655944 0.9901266 0.99104285 1.0355424 0.9902393 0.9972417 0.9917248
0.97579974 0.99096215 0.9878326 0.99612653 0.9939216 0.97196466 1.0006495 0.9933626
0.9913226 1.0280304 1.0104238 0.97893465 1.0168523 0.986473 0.99438053 1.0005596
0.9773063 0.99881375 0.9987871 1.0041524 0.9857475 0.998733 0.98750985 1.0030373

model.0.2.bias f4 [32]
00000000: 9a62 0c3b 6fe1 1f3c c0c8 963b fc6d 86bc
00000010: 12d2 ddbc 774d 51bc 239d 993c 7575 563c
00000020: 3a22 1e3b b96e 5abc 4582 eb3c a007 bc3c
00000030: d47a 05bb 6f5b 6b3c 1358 a33c cdf9 9d3c
00000040: 6c59 603b 81d7 08bd 15b8 d53c ed09 bebc
00000050: 3792 05bd 1ae0 483c 4175 cdbc 8ab7 873c
00000060: 9452 cbbb 5a08 d43c 54f8 4abc 8855 053d
00000070: 1535 af3c fd95 0bbb 354f 0e3d 19b2 4a3c
0.0021421076 0.009758337 0.004601568 -0.016409867 -0.027077708 -0.012774817 0.018751686 0.013089527
0.0024129287 -0.013332062 0.02874864 0.022952855 -0.00203674 0.014365061 0.019939458 0.019284153
0.0034232987 -0.033408646 0.026088754 -0.023198092 -0.032610144 0.012260461 -0.025080325 0.01656701
-0.0062049124 0.025882889 -0.012388308 0.032552272 0.021387616 -0.0021299117 0.034743506 0.012371563

model.0.2.running_mean f4 [32]
00000000: d96b c03a cdc5 7c3c c5bb 4d3f 8642 913f
00000010: 4325 f338 56be 0a3d 22ef fd3e eac5 863f
00000020: a813 e03b 165a 013b 3f3f 583c 4d20 6c3e
00000030: d6f6 503a db5f 513c f6b4 023e 1285 d13c
00000040: 4ce0 a63e 4be0 a338 cec8 4d3e 8df4 6f3f
00000050: f55e e339 25e3 c93e b05e 493e ec17 4d3d
00000060: f80b 143f e7b7 473a 3631 423e b41a a03c
00000070: f46a af3c e016 1f3e 561e 553c aa2e 0d3d
0.0014680579 0.015428019 0.8036464 1.1348426 0.000115940835 0.033872925 0.49596506 1.0529149
0.0068382807 0.0019737533 0.013198673 0.23059197 0.0007971352 0.012779201 0.12764344 0.025576148
0.32593 7.8142235e-05 0.20096132 0.9373253 0.00043367562 0.3943111 0.19665027 0.05007164
0.5783076 0.0007618651 0.18964085 0.019543983 0.021413304 0.1553607 0.013007721 0.03446833

model.0.2.running_var f4 [32]
00000000: d856 8f39 a350 ff3b 21db 703e e0a1 523e
00000010: e804 8837 9492 093c f445 dd3d b760 283e
00000020: 2725 ba3a 53ff fd39 19f5 a63b f3f2 1e3b
00000030: 3117 1039 1dd5 6f3b 94f3 163b 5187 b43c
00000040: 1440 a03c e483 4837 2c89 353b 6aa2 523e
00000050: 1e52 9038 0237 0c3c 97fd bd3c 4734 8b3c
00000060: add6 173d e411 d538 bb17 a33c fad9 d53b
00000070: 12e1 703c 59c8 8c3b b72b 773b 9536 633c
0.0002733979 0.007791595 0.23521091 0.20569563 1.6214748e-05 0.008396763 0.10804358 0.16443144
0.0014201746 0.00048446152 0.005095136 0.0024253696 0.0001374155 0.0036595531 0.0023033367 0.02203718
0.019561805 1.1951637e-05 0.002770017 0.20569769 6.8817506e-05 0.008558037 0.02319221 0.016992701
0.037069965 0.00010159964 0.019908777 0.006526229 0.014702098 0.0042963442 0.0037715265 0.013867994

model.1.0.weight f4 [32, 32, 3, 3]
00000000: b99b 10bd 8223 9bb9 f1a5 213c f960 c43c
00000010: 7bce b8bc 1372 4c3d d6d4 a1bc 7404 88bb
00000020: 7270 f0bc b291 423d 2d02 80bd 996b e5bc
00000030: 27d0 1e3d 3edf 4e3c 266e 75bd 5063 9abc
00000040: 83ad 0d3d a8c3 a33c d483 ce3b 8742 b53c
00000050: fbeb a73b d03d 03bc e6a2 73bc 321e 053d
00000060: 20b8 b43c 6667 31bc d2cc cf3c 9fc1 19bb
00000070: 4172 38bd 51a7 4f3d 2caa 7d3d 7dc8 6f3c
00000080: 72f9 e8bc d55a 163c 5339 323b 022b 9cbc
00000090: c3ae 973d ee73 33bc ae49 d83c 2ce0 0d3d
000000a0: 9e5e a03c ed52 833d 6141 6f3d 9230 feba
000000b0: ef3a 04bd 0ec5 2a3c 5e1b e7bc d5a9 bd3c
000000c0: 9afe 92bd a250 913b a846 c83c 2545 cc3c
000000d0: d10e 74bd 4fb1 163d 8c9f ebbc 1c4a cbbb
000000e0: 3f86 bd3c da91 44bd 441d b83c 2672 e43c
000000f0: 172a 9dbc 5cc2 d1bc 4940 3d3d 1a77 4cbd
00000100: 0834 ddbc 959e f43c f988 d43c cb6b 673d
00000110: 3069 0e3a 3922 05bd 7d1c 273d b7e7 aebc
00000120: 20c7 04bd b618 8fbc de60 24bd b330 6abd
00000130: c68b b0bb de5f eabb e8fa 1e3d e816 53bd
00000140: 16bb e3bb 027b 233b e2d1 013d e9f9 3a3d
00000150: 6625 363d cce3 273d cb1d 31bd c5df ff3c
00000160: 50be 303c ce95 21bc 106f 85bd 8e9b e43c
00000170: 6bb2 8dbc 4966 debc 5f9d d9bc cd24 eebc
00000180: 2faf 133d d2f4 133d 5bf2 7ebd 2b0d c2bc
00000190: 71b1 4fbd d1ab 563d 95e4 123d e29f 2d3d
000001a0: 3602 e9bb eeb4 edbb 8a50 7dbc 14b4 27bd
000001b0: 860c 683d c940 393d c0f7 0f3c f201 56bd
000001c0: 4a00 19bd 43f0 013d 24ea 4c3c 0d4f 8f3c
000001d0: c017 5e3d 679b 163d 4af7 f5bc 0e9e e6bc
000001e0: ab28 68bd a5f8 f63b 8c9c 28bd 3067 3bbc
000001f0: e4d8 c33c 33a1 69bd 96ae 2d3c 54d7 483c
00000200: 647b 97bb 25c2 dc3c 0254 163d cb91 533c
00000210: cb54 aabc 4031 7abd 03d7 b23a 4031 33bd
00000220: 5c16 bf3c 22f2 44bb b298 de3c 643c 033d
00000230: 0f1e 243d 11bf f63b 3ee9 113d 3e85 26bd
00000240: de36 863d 428b a0ba 378d bd3c 6060 43bd
00000250: bc67 8b3c b63a 08bd 8662 d2ba d1f5 7e3c
00000260: 4ea9 44bd 61d7 153d 62fc e13c 4636 913c
00000270: 5c47 9e3d f36b 943c 6f42 543d 75ac 0e3c
00000280: 22d8 e03c 72eb 703d 56de 23bd 8b02 563c
00000290: c1d1 e5bc 8ac7 313d d369 42bc 3464 f0bc
000002a0: e4cf f4bc 3e0f 493d 85f5 023d 7dc2 513d
000002b0: 4c29 3abd f1cc 1b3d abc9 d53c 0e31 11bd
000002c0: d2e5 81bb 99d8 e7bc e394 24b9 e5fb c03b
000002d0: 4cf0 7fbc 8249 4f3d f9b8 863d ce24 2b3d
000002e0: 96b9 253d 80b5 23bb 3fba 03bd aeef 993d
000002f0: 24ae 5c3d 2da2 383d dcf3 25bd 893c 23bd
00000300: c229 1c3c 8bc8 143d 0964 22bc 943c 5cbd
00000310: 3907 2f3d 449a 1c3d 4bc4 263d 913f 253c
00000320: 1b9b 543d fa19 e33c ea0c 3cbd c98d b13c
00000330: 07e4 3dbd d639 0b3d 5c81 c8bc 1441 babc
00000340: 4bee c43c 5a9c 4cbd cd5a 093d deff 01bd
00000350: 74fc 6a3b d729 06bd 20d2 46bd 4243 013d
00000360: 4cfb 763d 45b4 efbc eb4d c83c d519 9dbc
00000370: 2b28 d03c a2f4 173c cf3c 623d d238 a7bc
00000380: beca c2bb e3d1 383c da9b d13c fdfb 67bd
00000390: c16a 433d 00e2 99bc e078 b3ba 4233 1b3d
000003a0: 2d70 18bd c8de 893d 754d 473d 8854 083d
000003b0: af61 0e3d 7d9b 0a3d 903d ce3c dcc4 b539
000003c0: b405 4abd 339e c5bc eac6 3b3d e8bd 39bd
000003d0: fc83 153b 1f66 13bd aa17 283c c6fa f03c
000003e0: 7191 203b 7436 27bd 5b7a 1cbd abe3 27bd
000003f0: 8791 0f3c efca 1c3b 623b 6c3c 091d 55bd
-0.03530476 -0.0002959036 0.009866224 0.023972021 -0.022559395 0.049913477 -0.019754808 -0.0041509215
-0.029350493 0.047502227 -0.06250415 -0.028005408 0.03877273 0.012626467 -0.0599195 -0.018846184
0.0345893 0.019990757 0.006302336 0.02212645 0.0051245666 -0.008010343 -0.014870381 0.0324995
0.022060454 -0.010827875 0.02536622 -0.0023461354 -0.045030836 0.050696675 0.061929867 0.0146352025
-0.028439257 0.0091769295 0.0027194812 -0.019063476 0.0740638 -0.010952933 0.02640232 0.034637615
0.019576367 0.06412301 0.05841196 -0.0019393137 -0.032282766 0.010422958 -0.028211292 0.023152271
-0.07177468 0.004434661 0.024447754 0.024935314 -0.059584443 0.03679019 -0.028762601 -0.006203903
0.023135303 -0.047990657 0.022474892 0.027886461 -0.019185109 -0.025605373 0.046203885 -0.04991827
-0.02700235 0.029860774 0.02594422 0.056499284 0.0005432544 -0.03250334 0.040798653 -0.021350725
-0.032416463 -0.017467838 -0.040131442 -0.05717535 -0.005387756 -0.0071525415 0.0388135 -0.051535517
-0.0069497926 0.0024945145 0.0316943 0.04564849 0.04446926 0.04098873 -0.043241303 0.031234631
0.010787562 -0.009862376 -0.06515324 0.027906206 -0.01729699 -0.027148383 -0.026564298 -0.029070282
0.03605574 0.03612215 -0.062242847 -0.02368792 -0.05070633 0.05240995 0.035862524 0.042388804
-0.0071108593 -0.0072542345 -0.015461097 -0.04094322 0.05665257 0.0452278 0.008787096 -0.05224795
-0.03735379 0.031723272 0.012506995 0.017493749 0.05422187 0.036769297 -0.030025143 -0.028151538
-0.05667941 0.007536965 -0.04116492 -0.011438176 0.023907132 -0.057038497 0.010600707 0.0122583695
-0.0046228636 0.026948044 0.03670121 0.012913178 -0.020792386 -0.061082125 0.0013644401 -0.04374814
0.023326091 -0.003005155 0.02717242 0.032040015 0.04006773 0.007530101 0.035622828 -0.040654413
0.06553434 -0.0012248533 0.023138626 -0.047699332 0.017017238 -0.033259116 -0.0016051091 0.015561537
-0.048013024 0.036582354 0.027586166 0.017726075 0.077284545 0.01811788 0.05182117 0.008708109
0.02744681 0.05881829 -0.040006958 0.01306213 -0.02805412 0.043403186 -0.011866051 -0.029344656
-0.029884286 0.0490868 0.031972427 0.05121087 -0.04544954 0.038037244 0.02609714 -0.035447173
-0.0039641643 -0.028301524 -0.00015695723 0.005889403 -0.015621256 0.050607212 0.065782495 0.041783147
0.04046019 -0.0024980009 -0.03216004 0.075164184 0.05387701 0.045076538 -0.040515766 -0.039852653
0.00953144 0.036324065 -0.009911546 -0.05376871 0.042731497 0.038233057 0.040714543 0.010085956
0.051905733 0.027722348 -0.045910753 0.021674054 -0.046360042 0.033990704 -0.024475746 -0.02273611
0.024039408 -0.049953796 0.03353386 -0.031738155 0.003585604 -0.032754745 -0.048540235 0.031558283
0.06029825 -0.029260764 0.024451217 -0.019177357 0.025409779 0.009274634 0.055233773 -0.020412836
-0.005944579 0.01128051 0.025587011 -0.0566368 0.04770923 -0.018784523 -0.001369264 0.03789068
-0.037216354 0.06731945 0.048657853 0.03328374 0.034761127 0.03383969 0.02517584 0.00034669682
-0.049321845 -0.024123287 0.045843996 -0.045347124 0.0022814265 -0.035986062 0.010259548 0.029416453
0.0024500752 -0.040823415 -0.038202625 -0.040988605 0.008762724 0.0023924669 0.014418455 -0.052029643

model.1.0.bias f4 [32]
00000000: e680 89bd 896b 8cbc afa1 97bc 339b 9dbd
00000010: c791 99bc 7f2e 38bd cd80 c33c f743 1abc
00000020: efe2 f4bc f2cc 173d 399a 773d ae04 8bbd
00000030: 42d6 063d c765 86bd e328 1abd 9573 f9bc
00000040: fbbe 14bd ec98 803d 892b 133d a474 92bc
00000050: ca78 e0bc 1c9e f0bc 7b9e 49bd 5e95 35bd
00000060: 4442 fabb 1d15 e33c 7def 27bd f08e 41bb
00000070: d04b dd3a 22ca 6fbc 2b7f a93b 20d6 94bc
-0.067140386 -0.01714112 -0.018509714 -0.076956175 -0.01874627 -0.044966217 0.023865128 -0.009415618
-0.029893367 0.037060685 0.060449813 -0.06788002 0.032919176 -0.06562381 -0.03763665 -0.030450622
-0.036314946 0.062791675 0.03593019 -0.017877884 -0.027401347 -0.029372267 -0.049223404 -0.0443319
-0.007637294 0.027720029 -0.04099988 -0.002953466 0.0016883556 -0.014635595 0.0051726303 -0.018168509

model.1.2.weight f4 [32]
00000000: ca2a 813f 14a0 7e3f 386a 813f f012 813f
00000010: eab3 7e3f 13c4 793f 728e 823f e620 7e3f
00000020: f533 7b3f a42d 7c3f aa14 7a3f d3a5 813f
00000030: 28bb 803f 96ce 843f d696 813f 1d5a 7f3f
00000040: 21dd 803f d33f 7b3f c309 803f 0c75 7e3f
00000050: 09c5 7f3f 6a11 7d3f df52 7b3f 004e 7f3f
00000060: 2edc 7f3f 783f 7d3f 8d73 7c3f 33fe 813f
00000070: 1e44 7f3f 0e2b 7d3f 02f8 7b3f 1493 7f3f
1.0091183 0.9946301 1.011054 1.0083904 0.9949328 0.9756481 1.0199721 0.9926895
0.98126155 0.9850714 0.9768778 1.012873 1.0057116 1.0375545 1.0124156 0.99746877
1.0067483 0.98144263 1.0002979 0.9939735 0.99910027 0.98854697 0.98173326 0.99728394
0.9994534 0.9892497 0.98613816 1.01557 0.99713314 0.9889382 0.98425305 0.998338

model.1.2.bias f4 [32]
00000000: 17f2 f8bb 9242 86bc d0b1 913c 30b1 93bc
00000010: 1a8b 92bc 031c adb9 fb42 1abd c968 d7bc
00000020: 128a 703c 1a52 b03c 2840 86bc af3a 8fbc
00000030: b632 00bc 7ce3 2abc 9770 06bc 5666 323c
00000040: c430 b43c 6e3a 2cbb eb3c c73c a91b b2bc
00000050: 852a 8ebc 5528 de3c 9017 9a3c a273 f3bb
00000060: 7417 da3b 08ad 8b3c 7794 3ebc 0117 be3b
00000070: e095 c43b 1182 943b 5238 d1bb 2d37 88bb
-0.0075972187 -0.016389165 0.017784983 -0.018028826 -0.017888594 -0.00033018002 -0.037661534 -0.026295083
0.014681356 0.021523524 -0.016388014 -0.017484037 -0.00782459 -0.010430213 -0.008205554 0.010888657
0.02199591 -0.0026279944 0.02432104 -0.021741705 -0.01735426 0.027118841 0.018810064 -0.007429556
0.006655628 0.017050281 -0.011632076 0.005801082 0.005999312 0.0045321067 -0.0063848877 -0.004156968

model.1.2.running_mean f4 [32]
00000000: 76b0 b53e d170 123e d933 273e 9b8b 2c3d
00000010: f0dc 313f 3b98 033f fe51 a43e 0dac 0c3f
00000020: 9e78 c23e 7b52 fd3e 0764 c23e 5ec6 ed3d
00000030: 76f9 eb3e 610d 0d3d 7419 9b3e b670 9e3e
00000040: fd76 6f3e c5d4 ff3e 3f80 6a3e afea 9f3e
00000050: decb ef3e 9e0e 773e 1679 c93e 1bab bb3e
00000060: 4bd3 ec3e 5e70 c73e 0fd4 223e aecd a73e
00000070: f143 833e b0e7 9d3e 8293 083f 8bdd 333f
0.35486192 0.14300849 0.16328372 0.042125326 0.6947775 0.5140416 0.32093805 0.5495003
0.3798265 0.4947699 0.3796694 0.11610101 0.4608876 0.034436587 0.30292857 0.30945367
0.23385234 0.49967018 0.22900485 0.31233737 0.46835226 0.2412667 0.39350194 0.3665398
0.46254954 0.38952917 0.15901206 0.3277411 0.25637773 0.30840826 0.5335008 0.7025992

model.1.2.running_var f4 [32]
00000000: 7b82 873e 4854 fc3d e2d7 b43d a9ae 703e
00000010: 5a95 d63f dffb a23e b940 803e 1f3e a93e
00000020: e819 693f 784c 9c3f 607b 783e 3455 7e3e
00000030: 929e 1c3e 2a19 d63d c77d 3a3e 9c45 213f
00000040: ad48 923e 0c28 743e 9936 363e c1d6 123e
00000050: c52a fe3e b6cb 5e3d b852 fd3f 58c8 763e
00000060: 0cfd 7e3e ad96 c63f eac4 9c3e 1cc4 5f3e
00000070: 669d 0b3e 95bd cb3e 35e9 ad3e f022 063f
0.26466736 0.12320763 0.08830239 0.23504128 1.6764328 0.31832787 0.2504938 0.33055207
0.91055155 1.2210836 0.24265814 0.2483719 0.15294865 0.104540184 0.18212043 0.6299684
0.28571072 0.23843402 0.17794265 0.14339735 0.49642006 0.054393493 1.9790869 0.24099863
0.24901217 1.5514733 0.30618984 0.21852154 0.13634261 0.39793077 0.33966985 0.5239706

model.2.0.weight f4 [64, 32, 3, 3]
00000000: 7ffc 153c fbf2 d2bc d246 703c 7ff5 813d
00000010: bd9a 04bd e617 393d 1e19 5c3d d2d4 743d
00000020: 8e70 18bd 1bc9 e13c aa27 d73b d1ec b03c
00000030: 7606 743c 344b 433d e3ea 1b3c 568e bb3a
00000040: 06da 363c ac1a f1bc b14b 153d 2523 1abd
00000050: 8ed8 ae3c a226 5cbb 9a5d 7abd fc3c 7dbd
00000060: ca94 6d3c 17b1 24bd 54b9 6dbc a239 763c
00000070: 9f20 c63c 44b8 9bbb 28f7 6d3d fb44 0e3d
00000080: 4650 7c3c 0854 033c 065c 01bd 6452 493d
00000090: 24a7 9bb9 8067 313c 7184 343d 4f97 ba3c
000000a0: 63af 22bd a02a 6c38 7b45 573d f46a 0d3d
000000b0: 6eb9 593d ab7b 703d b5c5 db3c 2459 45bd
000000c0: 30ad b5ba 5d9e 4d3d 6835 653d efe0 aabc
000000d0: 8f18 4c3d f148 e1bc e7f4 1f3d 85b7 8f3d
000000e0: d33f 11bd 50ef babc 5325 ab3b a846 643d
000000f0: ff86 753d ea23 e43b 27cb afbb 7a5f 83b9
00000100: d825 abbc c318 7d3d 37ca b43c f9cd 583d
00000110: 2157 533c 05bb 083d ffdb 0eba c894 db3c
00000120: cf64 a43c 7674 56bc bfb6 47bd e9d1 023c
00000130: 8b27 18bd 8d3b 1a3d 8e18 d93c 8e10 d7bc
00000140: 216b 233d 14f1 8cbc 5a2c 883c 774a 203b
00000150: 85fb 86bd f56c 61bd 3608 7cbc 4825 bbbc
00000160: 84fd 7cbd e668 2a3d ec7d a1bc 0969 b6bc
00000170: 198a 693d a51e 58bb 1284 2e3c b74f 113d
00000180: 1e22 5c3c 933c bdbc 606f 303d 66ba 61bc
00000190: 6c4b 333c 3fa2 8d3c 6f0b 8cbc 9a98 543d
000001a0: f4b0 d8bc f6fd 52bc 4ece 5e3d ba43 923d
000001b0: e45c 513c 0e73 8dbc 642e 833d 14db d2bc
000001c0: e3ec 0bbd 56de 6b3d c863 0bbd a1f3 09bd
000001d0: 8a3e 313c b29e 053d 7048 fa3c 1781 2c3d
000001e0: 907d 44bc 570f d13a 78e4 f23c 3a7b 9b3d
000001f0: f65e ab3d d705 e0bb b65d 653d 5de6 bdbc
00000200: 2c9a 41bd 1428 113d e645 33bb dee4 eb3c
00000210: d246 9d3c 7fee a5ba a8d1 99b8 98e0 f3ba
00000220: a8f9 36bd 54b1 973c 6c77 23bd 8fc4 98bb
00000230: 366a 4bbd 9827 983b f01b 97bd 28ca 39bd
00000240: e93c 8a3c 3fe7 46bd ffd6 eebb 1a39 103d
00000250: 70a7 4bbd 5755 83bb a028 99bb 52f7 463d
00000260: 87ed 563d efc8 aebc 6e8a 043c 7abb b63c
00000270: 26e4 063d 1283 5d3d c288 54bd 40c2 6dbd
00000280: e11e 153d 29f3 053d 3e05 363d 44c4 19bc
00000290: b4dc f4bb eb16 77bd f961 0a3d 135b 423d
000002a0: e23b f3bc acb1 47bd 381e 7bbb 9102 5f3d
000002b0: f2fc abbc 8a8f 0b3d af12 e93c 2dd1 943d
000002c0: 440d 4cbb 65cd d1bb 8cb7 dd3c 5045 0abc
000002d0: 97db 933d 5609 8e3d 128d 733d 1936 973c
000002e0: af50 493d 1e77 f13c 9b65 083b 7686 253c
000002f0: fe9a 5a3d 9569 86bd e79d 3b3d e20c 86bd
00000300: 2a32 05bd 7ace 183d 4276 a8bc e10d 253c
00000310: cef7 44bc a24a c0ba 99ed 88bd 47ef acbc
00000320: 5ef1 0abc 4455 4bbc 9bf0 c4bc ceaf 423c
00000330: 8f71 18bc 6d7e 0ebb a16e 9fbc f785 d43b
00000340: e14a 133c 04e5 723a fba1 b8bb 8ac2 ab3a
00000350: f990 663d df37 953c 6a43 843d 054b 7b3b
00000360: d953 6ab9 0598 493c b1f2 c03c 864e 073d
00000370: b423 083d 0302 abbc afbb b73c 5a95 0e3d
00000380: 2766 983c 1cac afbb ae2a 793c 6f96 30bc
00000390: 5a69 2e3d f019 2fbc f8f1 53bd 0d84 40bb
000003a0: fd42 583b a807 623d aa26 073c 2093 203b
000003b0: acb9 9c3c 211a 363d 93ac 993c 91b7 03bd
000003c0: 7536 c7bc 6504 2a3d 1f2d 13bd 460e df3c
000003d0: d3c8 223d 32d7 88ba 5710 773d eb5a 883c
000003e0: a7b5 373d d528 b4bb c234 1abd 8344 a6bc
000003f0: 90e7 3cbd 23ef 03bd eb9e 253d d236 933c
0.009154438 -0.025750628 0.014665322 0.06345653 -0.032374132 0.045188807 0.05373489 0.059773274
-0.037216716 0.027561715 0.0065660076 0.021597298 0.0148941185 0.04767914 0.009516451 0.0014309387
0.011160379 -0.029431663 0.036449138 -0.037631173 0.021343496 -0.0033592363 -0.06112442 -0.061825737
0.014500806 -0.04020795 -0.014509518 0.015028389 0.024185477 -0.004752191 0.058097035 0.034733754
0.015399998 0.00801564 -0.0315819 0.04915084 -0.00029688433 0.010827899 0.04407162 0.022777228
-0.039718043 5.6306482e-05 0.052556496 0.034525827 0.053155355 0.05871169 0.026827672 -0.048180714
-0.0013860818 0.050199855 0.055959135 -0.02085921 0.04982811 -0.027500601 0.039051916 0.070174254
-0.03546126 -0.022819191 0.0052229553 0.055731446 0.059943195 0.006962289 -0.005364794 -0.00025057403
-0.020892069 0.061791193 0.02206908 0.052930806 0.012899191 0.03338148 -0.0005449652 0.026804343
0.0200676 -0.01308929 -0.048758265 0.007984617 -0.037147086 0.03765445 0.026500966 -0.026253011
0.039897088 -0.017204799 0.016622711 0.0024458447 -0.06590942 -0.05503555 -0.015382817 -0.022844926
-0.06176521 0.041603945 -0.019713365 -0.022266882 0.057016466 -0.003297725 0.010651605 0.035476413
0.013435869 -0.023100173 0.043074965 -0.013777351 0.010943275 0.017289279 -0.017095296 0.051903345
-0.026451565 -0.012877932 0.054395966 0.07141824 0.0127784945 -0.017266776 0.06405333 -0.02573923
-0.03416146 0.057585083 -0.034030706 -0.03367961 0.010818133 0.032622047 0.030552119 0.042115297
-0.011992827 0.0015950006 0.029649958 0.07591863 0.08367722 -0.0068366337 0.055997573 -0.023181135
-0.04726617 0.035438612 -0.0027354895 0.028795656 0.019198809 -0.0012659578 -7.33466e-05 -0.0018606363
-0.044671685 0.018517174 -0.03990881 -0.0046621035 -0.049661838 0.004643392 -0.073783755 -0.045358807
0.016874747 -0.048560377 -0.007288813 0.035210706 -0.049720228 -0.004007976 -0.0046740323 0.048575707
0.052472617 -0.021336047 0.008089645 0.022306193 0.032932423 0.054080077 -0.051888235 -0.05804658
0.0364064 0.0327026 0.044438593 -0.009385172 -0.007472599 -0.06032459 0.03378484 0.047450136
-0.02969164 -0.048753425 -0.0038317572 0.054445807 -0.020994637 0.034072436 0.028451292 0.072664596
-0.0031135837 -0.0064026588 0.027065061 -0.008439377 0.07219618 0.069353744 0.059460707 0.018458413
0.04914921 0.029475745 0.0020812515 0.010102859 0.05337047 -0.06563107 0.045804884 -0.06545426
-0.032518543 0.037306286 -0.020564202 0.01007411 -0.012021972 -0.001467068 -0.06685943 -0.02111019
-0.008480398 -0.012410466 -0.02404051 0.011882735 -0.009304418 -0.0021742836 -0.019461932 0.0064856964
0.0089900205 0.00092656934 -0.005634544 0.0013104242 0.0562906 0.018215118 0.06458171 0.0038344276
-0.00022347215 0.012304311 0.023553224 0.03303387 0.033237174 -0.020874983 0.022428362 0.0348104
0.018603398 -0.005361093 0.01520793 -0.010778054 0.04258094 -0.010687336 -0.05174443 -0.0029375583
0.0032998913 0.055183083 0.008248964 0.0024501756 0.019131504 0.044458512 0.018759048 -0.032157484
-0.02431796 0.041508097 -0.035931703 0.027228486 0.039742302 -0.001044011 0.060318317 0.016644916
0.04485097 -0.0054980316 -0.03764797 -0.02029634 -0.046119273 -0.03221048 0.04043476 0.017970476

model.2.0.bias f4 [64]
00000000: 3c71 403c d99e d6bc b8b2 8a3c 98c3 5fbd
00000010: b624 29bd c98d 31bc f9fb 87bd 7e0a 313c
00000020: 7b43 53bd 428c 083d b226 68bd e8f8 a1bd
00000030: 0e7a 16bb 9e29 1d3d 7dc3 75bc 7adb 0b3d
00000040: 6f42 e83b f457 9dbc 1935 713d 7dbc b73c
00000050: 8af8 eebc 7cdf fdbb 3525 b83c bbf8 34bd
00000060: d2d9 4cbd ca40 64bd 3f12 66bd a803 d23c
00000070: 8436 6cbd a736 9cbd b724 753c 3359 65bb
00000080: 89cc 1d3d cae7 4ebd ec6c 54bd 04ac 9dbc
00000090: 6285 0fbd 382b 053d 79f8 253d 9492 4ebd
000000a0: 12c6 7dbd ecbe 173d 7d02 02bc 8961 6abc
000000b0: dc7b bf3c 0d8d c83c 4545 f5bc df9e 1e3d
000000c0: 8a47 7fbd f59d 86bd 9ce9 84bd af72 263d
000000d0: aa1a 903b 069d 0cbd cbc1 0cbd 112f d8bc
000000e0: d832 383d 8d20 1c3d ae8b b1bd 7895 c5bb
000000f0: b8fd 9f3c a52a 363d ec6c 3abd 0682 18bd
0.011745747 -0.026198791 0.016930923 -0.054629892 -0.041294776 -0.010837027 -0.06639857 0.010805724
-0.051578026 0.033336885 -0.056677528 -0.07908803 -0.0022960934 0.038369767 -0.015000221 0.034144856
0.0070879976 -0.019206978 0.05888853 0.022428745 -0.029171247 -0.0077475887 0.02247868 -0.04418252
-0.050012417 -0.05572585 -0.056169745 0.025636509 -0.057669178 -0.076276116 0.014962367 -0.0034995794
0.038525138 -0.05051402 -0.05186169 -0.019247063 -0.035039313 0.03251192 0.040520165 -0.050432757
-0.061956473 0.03704731 -0.007935164 -0.014305481 0.02337449 0.02448132 -0.029940257 0.03872573
-0.062324084 -0.06573097 -0.0648987 0.040636715 0.00439771 -0.034329437 -0.034364503 -0.02638963
0.044970363 0.03811698 -0.0866922 -0.006029781 0.019530162 0.044474263 -0.045514032 -0.037233375

model.2.2.weight f4 [64]
00000000: 24fd 803f 65c8 7e3f 2654 823f 36b2 7d3f
00000010: 7a3d 7d3f 6f43 803f 446c 843f a51b 7a3f
00000020: d151 803f 3a04 803f 97c6 7e3f 02fc 7d3f
00000030: 62e9 813f e12d 803f 2595 833f f86c 803f
00000040: c487 803f d93f 793f 7f43 7e3f cf0c 803f
00000050: 1d2b 813f 34b1 7d3f 6e12 813f a722 823f
00000060: 7ca0 803f 00bf 7a3f e360 803f 998d 813f
00000070: 5230 803f e4bc 813f 5e3c 7d3f 7fbe 7e3f
00000080: 242d 813f 8e7e 813f 6f91 7c3f 245e 803f
00000090: 5f55 823f b136 7f3f 531f 813f ca0c 7d3f
000000a0: 33b6 7e3f 5dab 7b3f d022 7a3f 3dce 783f
000000b0: 2148 803f 67cc 823f 25ea 7d3f 8265 7b3f
000000c0: 8fa6 7d3f 6374 803f 8f56 7f3f 32cd 7d3f
000000d0: 2274 803f 0c36 7d3f 1ff2 7b3f facc 7e3f
000000e0: 6fc6 803f 941c 803f c35c 813f 67d9 7e3f
000000f0: 90e6 803f 2e1a 803f 141a 7e3f 251d 7c3f
1.0077252 0.9952453 1.018193 0.99100053 0.9892193 1.0020579 1.034554 0.9769843
1.0024968 1.000129 0.99521774 0.9921266 1.0149348 1.0014001 1.027989 1.0033255
1.0041432 0.9736305 0.9932174 1.0003909 1.0091282 0.99098516 1.0083749 1.0166825
1.0048976 0.9794769 1.0029567 1.0121337 1.0014746 1.013577 0.9892024 0.99509424
1.0091901 1.0116746 0.98659414 1.002873 1.0182303 0.9969283 1.0087684 0.9884764
0.99496764 0.98308355 0.9770937 0.97189695 1.0022012 1.0218629 0.991854 0.98201764
0.99082273 1.0035518 0.9974145 0.9914123 1.0035441 0.98910594 0.9841632 0.9953152
1.0060557 1.0008721 1.0106434 0.9955048 1.0070362 1.000799 0.9925854 0.9848197

model.2.2.bias f4 [64]
00000000: de6a a4bc 8432 5ebc afae edbc 765b 653c
00000010: 6320 b43c e10d 01bd b19c 9cbc fe26 85ba
00000020: 9216 5abc bdd3 e7bc 26cb 90ba afc1 c33b
00000030: ec40 8bbc b6df edbc 3a23 b1bc e14c 543c
00000040: 7f55 abbc c248 8e3c 6f18 65bc 26ba d2bc
00000050: 6e9c bdbc f7fc 2e3c fe77 0a3d bb2f 1dbd
00000060: 4ccc 6fbc 474d 0b3d ede0 73bc 46c5 90bc
00000070: 1c25 b7bb 3474 04bd 4a24 b4bb cbee b8bc
00000080: 8f0d 1bbc 076f e23c 072b a4bc eae8 1f3c
00000090: 4a85 08bd 4ea2 443b 29a3 e5bc 9892 85bc
000000a0: c5e0 25b9 2595 53bc 5e3e 0f3d d095 c33c
000000b0: 8571 5ebc 180f 68bb 26dc 5cbc 694d 69bc
000000c0: 0f90 24bc 8548 70bc 4bd7 87bc d5e9 21bc
000000d0: 5156 9aba 7621 f8ba 67af a83c 2496 fe3c
000000e0: 2790 4f3c fe3b d8bb 1676 0abd 2e0b 0abd
000000f0: 28a6 d1bc b33e 95bc 35ae d5bb 1eaa e5bb
-0.02007049 -0.013561849 -0.02901396 0.013998857 0.0219881 -0.031507377 -0.019117685 -0.0010158715
-0.013311045 -0.028299207 -0.0011046871 0.0059740166 -0.01699873 -0.029037338 -0.021623243 0.0129577825
-0.020914791 0.017368678 -0.013982876 -0.025723528 -0.02314588 0.010680429 0.03380584 -0.038375597
-0.0146361105 0.034009244 -0.014885169 -0.017672192 -0.0055891406 -0.032337382 -0.00549749 -0.022574803
-0.009463682 0.027640833 -0.020040048 0.009760121 -0.03333024 0.0030003968 -0.028031902 -0.016305253
-0.0001581936 -0.012913977 0.034971587 0.023875147 -0.01357687 -0.0035409387 -0.013480222 -0.014239647
-0.010044112 -0.0146657275 -0.016582152 -0.00988241 -0.0011774992 -0.001893087 0.02059145 0.031077452
0.012668646 -0.0065989485 -0.03380402 -0.033702068 -0.025591925 -0.018218374 -0.0065210112 -0.007008805

model.2.2.running_mean f4 [64]
00000000: 9923 303f 3e6e f73e f6ca 043f a149 1c3f
00000010: 3f96 713e d204 f23e 64d9 503e 2b15 2c3f
00000020: 2c1c c93e 7824 dc3e d677 a73e 4099 cb3e
00000030: 4529 063f e953 2a3f 69d6 c53e 551b ac3e
00000040: f9f3 343f 0e85 003f 6078 a33e 1ba1 d53e
00000050: d005 173f a783 e73e 2784 913e 2454 ff3d
00000060: 4b8c 043f 18ff e43e 7d77 c03e c6c2 203f
00000070: 84d2 b23e 8554 b63e 4c86 c23e 4fef c83e
00000080: 1a2a cb3e 5585 003f 8b78 823e d7c9 853e
00000090: 66b0 c03e 37f7 5e3e edb4 083f 68fe db3e
000000a0: f549 153f 1308 113f 11b2 c43e e7af 113f
000000b0: b1d5 aa3e 1cb7 713e d13b 203f fd44 1d3f
000000c0: 46a6 e13e e4c7 c43e 7567 f33e 644e fb3e
000000d0: 5438 be3e 9337 fa3e bffd 403e b2ba 2e3e
000000e0: ce0e 043f 33a6 4f3e 1eef dc3e 0bc3 0d3f
000000f0: b252 ed3e 555c 343f d469 e93e 2d45 633e
0.6880432 0.48326296 0.51872194 0.6104985 0.2359247 0.47269303 0.20395428 0.672198
0.39279306 0.42996573 0.32708615 0.39765358 0.5240672 0.66534287 0.38640144 0.33614603
0.7068477 0.50203025 0.31927776 0.41724476 0.58993244 0.4521763 0.28421137 0.124672204
0.5177657 0.4472587 0.37591162 0.627972 0.34926236 0.35611358 0.37993085 0.39245078
0.39680558 0.5020345 0.25482592 0.26130554 0.3763458 0.21773992 0.5340107 0.42967534
0.58315974 0.56652945 0.38417104 0.5690903 0.3336616 0.23605007 0.6259127 0.6143339
0.4407217 0.38433754 0.4753987 0.49083245 0.3715235 0.48870525 0.18846796 0.17063406
0.5158509 0.20278244 0.43151182 0.55375737 0.46352154 0.7045339 0.45588553 0.22194357

model.2.2.running_var f4 [64]
00000000: 0e5a 7940 24cb e33f 898a e33f 12f2 783f
00000010: 3cf1 5a3e d4cc c43f 5c3b c33e 3030 4140
00000020: dab4 0240 bae2 fc3f 3a46 9b3f 47fe a93f
00000030: be57 f73f db59 6940 d5fb 473f 6e5c af3e
00000040: 6120 8f3f 4ac8 4a3f 27fd 6d3e 3ccd 2840
00000050: 4f0f 0740 a694 d53e a093 a73e a79e 653f
00000060: b7f3 e13f 27a5 0a3f aff8 ea3e 9148 7f3f
00000070: 5143 233f e6ae 1540 d2ff 313f feb3 f13f
00000080: 444e ae3f 9821 b93e 4374 883f f1f2 633e
00000090: 699e 1c40 c3e4 ac3e bf6d 7640 d121 1740
000000a0: 1176 053f 1a74 1c40 5705 ca3e 0d8f b73f
000000b0: dbb1 ef3e 1514 373e acc8 5a40 0e3a 7e40
000000c0: 976d a73f 67c1 ce3f 7055 0040 e27a de3f
000000d0: 6156 593f d444 5f3f 41d7 2a3e 2d33 263e
000000e0: 9c94 0c3f 0fa0 913e 5a27 3840 e515 0b40
000000f0: d644 d53f c84d 2a40 1f40 303f 811e 243f
3.8961215 1.7796369 1.7776653 0.9724437 0.21381086 1.5375009 0.38131225 3.0185661
2.0422883 1.9756691 1.2130806 1.3280724 1.9323652 3.6461093 0.7811864 0.34250206
1.1181756 0.79211867 0.23241101 2.6375265 2.1103094 0.41714972 0.32729816 0.8969521
1.7652501 0.5415825 0.45892856 0.997201 0.6377459 2.3388 0.69530976 1.8883054
1.3617635 0.36158442 1.066048 0.22260644 2.4471686 0.3376828 3.8504484 2.361439
0.5213328 2.4445863 0.394572 1.4340531 0.4681538 0.17878754 3.418498 3.9722934
1.3080319 1.6152772 2.0052147 1.7381251 0.8489743 0.872144 0.16683675 0.1623046
0.5491426 0.28442428 2.8774018 2.1732113 1.6661632 2.6609974 0.6884784 0.64109045

model.3.0.weight f4 [128, 64, 3, 3]
00000000: 9f97 cc3c ee5b 273c 6639 223d 261a 0dbd
00000010: f800 0f3d 72f6 f83c 5729 b3bc 57d5 e6bc
00000020: b39e 0f3c 9a41 81bc cb92 613c bcc5 64bc
00000030: d53a b8bc 093e 1cbd d26a 02bc 7613 113d
00000040: ffe1 383b a760 8b3c 796b 4d3c 328a f1bc
00000050: 640a 8dbb ca93 f2ba 0f70 febc 37d1 1f3c
00000060: 728d a53c cfea 143d 4b35 843c eeef 123c
00000070: a7f3 c8bc 38e9 0bbd a77a 40bc f434 ca3b
00000080: 4e85 17bd bdd7 a53c 572a e53c 2fe0 01bd
00000090: 9580 b03c 6f74 1d3d 97c5 163c eb6a 51bc
000000a0: bcab 443d ced6 03bd 5189 1bbd bca6 313c
000000b0: 3bbd c03c 7b97 b0bc 9f2a b63c 1456 1f3d
000000c0: 265a 7dbb a329 323c 8c90 9c3b 154f abbc
000000d0: 43fa 3a3d a09a 153d 2647 ae3c 96af 0f3d
000000e0: 3330 53bb 67a6 0bbb 76b4 1a3d ec1a 3d3d
000000f0: f259 13bc bd77 233c 73f6 4b3b 2796 fabb
00000100: 549d aabc ccbc c4bc 2056 173d af65 ba3c
00000110: ed5b 88b9 ff81 343c 57db bfbb 7a14 d73c
00000120: 68dc 1dbd 99fa 4e3b e07b dcbb 181c dc3b
00000130: 8fa5 5a3c c079 70bc c079 d5bc 0bdb 043d
00000140: 04ee babc 4c38 e8bc 904a 0e3d 2fae 933a
00000150: fd3b 033d 6673 2a3c 8876 4e3d 179b fbbc
00000160: c5f5 063d b376 abbb ab52 3abd b52b a5b9
00000170: e7d9 323c aaaa dabc 87b7 6bbc f4a1 1f3d
00000180: 8463 18bd bcd8 953c 9a41 6cbc 0cfb 3fbd
00000190: 4550 553c cfd7 203d 5e36 1e3c 3323 e93c
000001a0: a824 f23c 2815 753c 48ad 17bc 7222 d73a
000001b0: ec1f b9ba 3a69 913c 4f5d e43c 5958 09bd
000001c0: 0c9a 4f3b baf5 223c f0de 963c d890 c63c
000001d0: f622 413d edd9 e4bc 9325 2a3c 4fa4 533c
000001e0: 07a0 0f3d 8b2a 8f3a d570 f83c 80da 79bc
000001f0: 09e7 e2bc d8af 0b3d 071b bdbb 4789 2d3d
00000200: 5727 6b3c a5cb d23b f6ef 193d 6459 2c3d
00000210: 4a74 9abc 4403 a93b 3b95 2c3c b884 1ebd
00000220: 6b96 27bd 0b94 c13b 2b6e 16bd 0a5f 933c
00000230: 7175 12bd ddf5 10bd 991c 1dbd 932c 1ebd
00000240: 33fb 31bd 2a3d 5cbb 0d64 2ebc 465c c4bc
00000250: 518b 25bc 0a9d 2bbc 59bb bdbc f575 9e3c
00000260: 3e40 46bc 0b9d e83c 2ca4 bf3c ef56 073d
00000270: 6dca 0fbd 920e cebc f353 153d 0c0c 3a39
00000280: fc00 27bc 6b2c 63bc 4c76 103c e441 083d
00000290: 3f40 cdbc 9895 283d f8b1 8e3c 646d 2fbd
000002a0: 7332 3b3d 3328 01bd 542f 153d 0a1d 92bc
000002b0: a1f1 70bc abb9 1c3d d984 bebc d494 4b3c
000002c0: d0b9 883c 56bf 1ebc e77b 13bd 2e07 a5bc
000002d0: ad8b 0cbd 280b 07bb 9501 b2bc fdef 22bd
000002e0: 71de 8c3b 4bff a8bc edf8 15bd 9c23 ea3c
000002f0: 96ce a13c 5c80 783c efd7 483c 42d8 15bd
00000300: 24fd 15bd 29c9 bfbc 9c8e 283d 4247 ad3b
00000310: c44e ac3c 5e6e 02bd 8a17 043d 8c7a 9a3c
00000320: 1452 acbc 45b8 8cba e47c 043d 983f ea3c
00000330: 5ffb 28bc 0871 85bc fe0f e53c 2fb1 1ebd
00000340: cbc0 963c cf0b 7f3c 7857 d1bc 47b2 7a3c
00000350: 0905 943a 0922 0e3b b26f 9cbc c59c b53c
00000360: 1491 6cbc 4223 09bd 3b60 1bbd 7723 e2bc
00000370: dd1a 0f3b 539d de3c c48b 72bc bc14 9d3c
00000380: 43cc df3c b60b 04bc df8c 1cbd a653 f1bc
00000390: 0d01 c8bc 701e 7e3a 1cdb d7bc 94f1 f4bc
000003a0: 7cb0 03bd 2a29 fbbc 3700 133d 0407 54bc
000003b0: a396 a7ba 754a a13c a32f 95bc 6d09 6cbc
000003c0: ad5f 68bc 4e88 b9bc a5b6 0e38 64eb 8fbc
000003d0: d6e7 d63c 98a1 273d d73b 94bc 0ad6 383d
000003e0: fac9 f3bc 65ed 2dbd 7b8f 173d 653a d93c
000003f0: e618 dcbc e345 0cbc 7c4c 03bd 96bf 3cbd
0.024974642 0.010214789 0.03960552 -0.034448765 0.034913033 0.030390952 -0.021870298 -0.0281779
0.008765864 -0.015778352 0.013767908 -0.013963159 -0.02248899 -0.0381451 -0.007960038 0.03541895
0.0028210876 0.01701386 0.0125378305 -0.029484842 -0.004304217 -0.0018507179 -0.031059293 0.009754471
0.020209048 0.036356743 0.016138693 0.0089683365 -0.024530245 -0.03415796 -0.011747993 0.0061708633
-0.036992364 0.020244474 0.02797429 -0.03170794 0.021545688 0.038441118 0.0092023825 -0.012781839
0.04801534 -0.032187276 -0.037972752 0.010842975 0.023527732 -0.021556607 0.02223712 0.03890045
-0.003865847 0.010874185 0.0047779735 -0.020911733 0.045648824 0.036524415 0.02127416 0.03507956
-0.0032224774 -0.00213089 0.037769757 0.046168253 -0.008993613 0.009977278 0.0031122237 -0.007647294
-0.020826973 -0.024015807 0.03694737 0.022753565 -0.0002600843 0.011017322 -0.005855005 0.026254881
-0.038540274 0.0031582473 -0.0067286342 0.006717216 0.013345136 -0.014677465 -0.026059031 0.03243546
-0.022818573 -0.028347157 0.034739077 0.0011267121 0.03203963 0.01040349 0.05040601 -0.030713601
0.032949228 -0.005232656 -0.045488995 -0.00031503817 0.01091621 -0.026692707 -0.014387018 0.03897281
-0.03720428 0.018291824 -0.0144199375 -0.046870276 0.013019626 0.03926831 0.009656517 0.028459167
0.029558495 0.014958657 -0.009257622 0.0016413464 -0.0014123893 0.017750371 0.027876524 -0.03353152
0.0031677512 0.009946281 0.018416852 0.024238989 0.047152482 -0.027935946 0.010384935 0.012917592
0.035064723 0.0010922713 0.03032724 -0.015249848 -0.027698057 0.034103245 -0.005771044 0.042367246
0.014352641 0.0064329677 0.03758236 0.042077437 -0.01885428 0.00515786 0.010533626 -0.03870079
-0.040914934 0.0059075407 -0.036726158 0.017989654 -0.035756532 -0.035390723 -0.03835735 -0.038616728
-0.043452453 -0.0033605793 -0.010643971 -0.02396978 -0.010104016 -0.010474453 -0.023160623 0.019343356
-0.0121002775 0.028395196 0.023393713 0.03304189 -0.035105158 -0.025153432 0.036457013 0.0001774283
-0.010193106 -0.013865571 0.008817267 0.033265963 -0.025055049 0.04115829 0.017418846 -0.042828932
0.04570241 -0.031532478 0.03642209 -0.017836113 -0.014706046 0.038263004 -0.023256706 0.01242562
0.016690165 -0.009689173 -0.036006834 -0.020145025 -0.034312893 -0.0020606015 -0.02172927 -0.039779652
0.004298978 -0.020629546 -0.036614347 0.028581433 0.019751828 0.015167322 0.012258514 -0.036583193
-0.036618367 -0.02341135 0.041151628 0.0052880356 0.021033652 -0.031843536 0.03224901 0.018857263
-0.021035232 -0.0010736069 0.032345667 0.028594777 -0.010313838 -0.016289249 0.027961727 -0.038743194
0.018402478 0.01556678 -0.025554404 0.015301294 0.0011293004 0.0021687767 -0.01909623 0.02216948
-0.014438886 -0.03348089 -0.03793357 -0.027604802 0.002183608 0.027174627 -0.0148038305 0.019174926
0.02731908 -0.008059433 -0.038220283 -0.029458832 -0.024414564 0.00096938666 -0.026349597 -0.02990035
-0.03215073 -0.030659277 0.035888877 -0.012941126 -0.0012785982 0.019688824 -0.018211192 -0.014406544
-0.014182967 -0.022648003 3.402554e-05 -0.017568298 0.026233595 0.040925592 -0.01809494 0.045126
-0.029759396 -0.042462725 0.037002068 0.026517102 -0.026867341 -0.008561584 -0.032055363 -0.046081148

model.3.0.bias f4 [128]
00000000: 01d5 7d3c f1bf 83bc b528 823c 4223 d1bc
00000010: 83f9 3bbd ce60 2abc 1363 9cbc 6fbc 383c
00000020: ea3d a73b 1648 853b 8155 cf3c b90a ec3c
00000030: 0416 e23c a115 babc 6f90 cc3c 301d 833c
00000040: cdbb 4abc d74c 0ebd a531 4dbc 3523 0a3d
00000050: 4232 c33c 95d0 e23c 0a1a 003c 79af 6fbc
00000060: ce2f dc3b a127 aabc eafd 98bc a832 383c
00000070: 3e6c 6fbc 1111 313c bb23 b3bb 3f83 d8bc
00000080: 6dd5 fbbc efd8 50bd f00a 933c d7ed 52bc
00000090: f2a7 1bbd 0535 a63c 0733 46bd 7349 20bd
000000a0: d7d4 643c 106f 6dbc 4af7 8fb9 12fa cabc
000000b0: 05b4 e03c fa91 4ebb 6d47 713c b714 e2bc
000000c0: 43b5 bfbc 0f5b 18bd d751 7abc acb1 183d
000000d0: 7aa4 883c b5c3 673c 2051 0bbd bead b43a
000000e0: 4c5c d1bc aaeb 61bc 1faa 52bc 6af6 7fbd
000000f0: 7450 0bbd 0b4a bcbc 9d52 51bd 69a2 e33c
00000100: d21f 14bc 9874 20bd 352f fc3c fe3b 53bd
00000110: cc66 53bd 2456 cbbc 16ae 4e3d be12 36bb
00000120: 346c 57bd 4908 14bd 44b2 563c 7b2a 8a3b
00000130: 0830 53bd d871 12bd f8fa 54bd fdf9 0dbb
00000140: ce44 86bc 5dd2 dfbc 0843 cdbc 3497 30bd
00000150: a01b ca3c e9cc 28bd 648d f5bc 9975 e0bb
00000160: 76f2 c53a 0561 4b3c 327a afbb 6127 6bbd
00000170: 4db8 17bd 79cb 0abd 5f31 df3b 2fc6 5abd
00000180: ddc3 9abc 5e8e cf3c db47 68b8 d2e7 d339
00000190: 8b02 21bc 1d8e 00bd e098 87ba 93d1 dc3b
000001a0: afc5 f33c 2b64 853c bdbb 973b c41f a83c
000001b0: fed0 c5bc 0e32 cebc 42ad 87bc 9866 c7bc
000001c0: 66e8 1cbd 1ae2 35bd 6343 dabc ad6f 6bbc
000001d0: b38d 5a3d 65fe 383c 1f59 6d3a 8814 1cbd
000001e0: af0a 403c 3638 613c 9fed 80bb cd72 28bc
000001f0: 02dc edbc 5291 60bd a141 cdbc 3e30 71b9
0.015492679 -0.016082736 0.015888551 -0.025529508 -0.04589225 -0.010399057 -0.019090211 0.011275395
0.0051038163 0.004067431 0.025309326 0.028813707 0.027598388 -0.022715392 0.024971215 0.016005129
-0.012373877 -0.03474125 -0.012524043 0.033724982 0.023827676 0.02768735 0.007818708 -0.014629238
0.006719566 -0.02077085 -0.018675763 0.011242546 -0.014613209 0.010807292 -0.005466906 -0.02642977
-0.030741418 -0.050988134 0.017949551 -0.012874088 -0.038001962 0.020288954 -0.048388507 -0.039132547
0.013966761 -0.014491811 -0.0002745933 -0.024777446 0.02742959 -0.0031520114 0.014726502 -0.027597768
-0.023401862 -0.037196215 -0.015278301 0.037278816 0.016679991 0.014145781 -0.034012914 0.0013784689
-0.025556706 -0.013789097 -0.012857943 -0.06249086 -0.034012273 -0.022984525 -0.051104177 0.027787404
-0.00904079 -0.039173692 0.030784229 -0.051570885 -0.051611707 -0.024821348 0.05045899 -0.0027782167
-0.052593425 -0.036140714 0.013104025 0.00421649 -0.051559478 -0.0357531 -0.051997155 -0.0021663897
-0.01639023 -0.027321989 -0.025056377 -0.04311295 0.024671376 -0.041211043 -0.029974647 -0.0068499562
0.0015102166 0.012413268 -0.005355143 -0.0574106 -0.037040997 -0.033885453 0.0068113054 -0.05341166
-0.018892223 0.02533644 -5.538003e-05 0.00040417776 -0.009827266 -0.03138553 -0.0010345243 0.0067388504
0.029757349 0.016283115 0.0046305344 0.02052296 -0.024147507 -0.025170352 -0.016562108 -0.024340913
-0.03830757 -0.04440508 -0.02664346 -0.014369887 0.05335779 0.011291121 0.00090541126 -0.038105518
0.011721297 0.013746312 -0.0039345766 -0.010281277 -0.029035572 -0.05482609 -0.025055708 -0.00023001523

model.3.2.weight f4 [128]
00000000: 79ae 743f 3702 733f e737 713f 1e18 703f
00000010: faa0 723f 63af 783f 85da 743f 3669 753f
00000020: 37ac 6e3f b37d 713f 9042 773f 204b 743f
00000030: 2f7d 793f 792f 773f f40d 733f 6a93 733f
00000040: 5e79 713f ee79 723f a304 773f 7002 723f
00000050: 94d7 703f fe3c 753f 0b4f 743f 2cff 6f3f
00000060: 1591 6f3f ead7 703f 1138 6f3f 5d1d 703f
00000070: f1d8 6e3f 2348 753f 7ee2 6f3f 1b60 703f
00000080: 3972 773f ecbf 713f c705 6f3f de71 713f
00000090: 9f8a 713f c17d 733f 88d0 703f fc80 6f3f
000000a0: 65a6 743f ed63 6e3f 7af1 6d3f de9c 703f
000000b0: 8678 733f 164c 703f 3a93 723f 9924 793f
000000c0: 7af6 763f d2a7 733f 6a38 713f 65e8 733f
000000d0: 0d80 753f 84b1 713f 2dcc 6d3f 3318 723f
000000e0: 6746 733f 9e47 6e3f d8d8 763f 2418 6c3f
000000f0: 35e8 6e3f 7a99 763f 84d7 713f a14c 733f
00000100: 5bb9 703f 1445 733f 2fdd 723f 4294 723f
00000110: 126f 743f e8de 783f caa8 773f 080e 713f
00000120: 87a7 733f bec3 6d3f 1316 6e3f ea7d 763f
00000130: b09b 723f 89fa 703f a205 713f 6303 7e3f
00000140: ac8a 743f 3310 723f 9973 6f3f 91e5 6f3f
00000150: 59a7 723f dff4 703f 02c1 6f3f 813a 793f
00000160: 8e00 703f 72d6 713f a392 703f 8740 723f
00000170: d852 6f3f 7511 723f 05aa 713f 363a 723f
00000180: 11d5 713f 73f3 763f 4125 6c3f 84ea 713f
00000190: c8b7 713f 2e78 733f 666e 783f 67f8 773f
000001a0: f2c3 713f f367 6e3f a642 753f 412d 6f3f
000001b0: 57cb 773f e270 713f 904a 723f 8c9a 733f
000001c0: 10bc 713f 2963 6e3f 9eaa 743f 671f 713f
000001d0: 5172 703f 4b56 6f3f d543 733f c054 743f
000001e0: 4dcd 713f 8fd4 763f 3691 753f 153b 763f
000001f0: 5c00 703f 7097 733f 4ef8 713f e99c 753f
0.95578724 0.94925255 0.94225925 0.937868 0.9477688 0.9714262 0.95645934 0.95863664
0.9323153 0.94332427 0.9658594 0.9542713 0.9745664 0.9655681 0.94943166 0.9514681
0.94325817 0.947173 0.9649145 0.9453497 0.94078946 0.9579619 0.9543311 0.93748736
0.9358075 0.9407946 0.93444926 0.93794805 0.93299776 0.95813197 0.93704975 0.93896645
0.96658665 0.94433475 0.9336819 0.9431437 0.94352144 0.9511376 0.94068193 0.9355619
0.955664 0.93121225 0.9294659 0.9398936 0.9510578 0.938661 0.947559 0.9732147
0.96469843 0.9517795 0.94226706 0.9527648 0.95898515 0.9441149 0.9288967 0.94568175
0.950293 0.9307803 0.9642463 0.92224336 0.9332307 0.96327937 0.94469476 0.950388
0.9403283 0.9502728 0.9486875 0.94757473 0.9548198 0.9721513 0.96741927 0.94162035
0.951775 0.92876804 0.9300243 0.9628588 0.9476881 0.94132286 0.9414922 0.9922392
0.95524096 0.9455597 0.93535763 0.93709666 0.947866 0.94123644 0.9365388 0.97354895
0.93750846 0.9446784 0.9397375 0.9462971 0.93485785 0.9455789 0.94400054 0.9462007
0.9446574 0.96465224 0.92244345 0.9449847 0.9442105 0.95105255 0.97043455 0.96863407
0.94439614 0.93127364 0.9580482 0.93428427 0.96794647 0.9431287 0.94645023 0.95157695
0.94427586 0.93120056 0.9557284 0.9418854 0.93924433 0.9349105 0.9502538 0.9544182
0.9445389 0.9641809 0.959247 0.961839 0.9375055 0.9515295 0.9451951 0.9594255

model.3.2.bias f4 [128]
00000000: 8359 8eba 0a17 903b 624e 0b3c 0672 b73b
00000010: d800 223c e338 783b cfb1 edbb 11b1 c0bb
00000020: bfb0 5d3c b437 133c 0c70 c53a da4a 9f38
00000030: 6570 7a3b c9c3 a53b 5e1b 98bb 9f35 f13a
00000040: ac56 d03a 5328 1b3c 4f64 8c3a 267d 3abb
00000050: d96f df3b 4844 89bb b05d b9bb 8230 3c3c
00000060: 70e8 473c 04df 4f3c 795f a33b b0a3 4b3c
00000070: 10a3 5d3c 0ba9 18bb 6f94 cb3b ea59 e83b
00000080: 144e a1bb 3d25 343c e500 263c 051d d7bb
00000090: 04a2 743c c0de caba cd73 903c 82f9 a63b
000000a0: e2c9 e9ba 4a93 613c 7283 263c 4185 303c
000000b0: 5c48 b73b 5ac1 d43b e80a dd39 73dd 9a3b
000000c0: 8227 4aba b0dd 2b3c 1dc4 0a3c 7f2d 043c
000000d0: 8c71 813a 3f09 0b3c 6029 293c 89d2 a73b
000000e0: 089e 083c e505 553c fd69 9abb 9891 5c3c
000000f0: ac6d b63b 7d9b 813b 7438 273c f9ff 99bb
00000100: b67a ac3b 8ada ff3b efe2 263c 2aa1 623c
00000110: e08e a73b 2963 28ba 1189 32bb 6a41 073c
00000120: 94ec 9e3a ffe5 853c 4855 0e3c 899e b7ba
00000130: a4e1 8c3c 1b93 f93b 05ce b3ba 0297 a3bb
00000140: 391a a6bb 8082 3e3c d997 2c3c c1d0 173c
00000150: 7056 5cbb c066 403c 6f8c 163c 0224 b43a
00000160: 4990 043c 855a 3c3c d4ac f53b 9544 223c
00000170: 5c02 553b 78a2 d53b 804e 083c e1aa b13b
00000180: 1534 273c 4628 05bb c962 463c c529 3d3c
00000190: c1d0 ac3b aaa1 67ba 850c 1c3b 4a1a 2bbc
000001a0: 8245 a9bb bbda 103c bb4a 5eba 5f84 ee3b
000001b0: 524d 173b 154a 063c 6647 093c 9eac e63a
000001c0: 9552 893b 150f e63b 94fc 4a3a fa13 143c
000001d0: b342 9cbc f279 123c 0968 953b 0c0d 443c
000001e0: cbe0 193c e828 61ba 1415 373b 921d 143b
000001f0: 8272 173c d7bc ca3a fd8f 043c 9bbe b53b
-0.0010860417 0.0043972777 0.008502575 0.0055983094 0.0098878965 0.0037875704 -0.0072538625 -0.005880483
0.013530909 0.008985449 0.00150633 7.595653e-05 0.0038213965 0.00505874 -0.0046419343 0.0018402821
0.0015894971 0.009470063 0.0010711047 -0.0028455942 0.006818753 -0.004189048 -0.0056569204 0.011486175
0.0122014135 0.012687448 0.0049857465 0.012429163 0.013527647 -0.0023294117 0.006212763 0.0070907967
-0.0049226377 0.010995206 0.010132049 -0.0065647387 0.014931206 -0.0015477762 0.017633343 0.0050956616
-0.0017836655 0.013768027 0.010163175 0.010773958 0.0055933427 0.006492776 0.0004216053 0.004726106
-0.00077115756 0.010489866 0.008469609 0.008067488 0.0009875759 0.008486091 0.010324806 0.0051215333
0.008338459 0.013001894 -0.004712342 0.013462447 0.005567273 0.003955303 0.010206331 -0.004699704
0.0052636517 0.0078080343 0.010185941 0.01383237 0.0051134676 -0.00064234674 -0.0027242342 0.008255342
0.0012124949 0.016345022 0.008687325 -0.0014009039 0.017197438 0.0076164133 -0.0013718015 -0.004992367
-0.005069044 0.011627793 0.01053425 0.009266079 -0.0033620857 0.0117432475 0.009188755 0.0013743641
0.008091041 0.011496191 0.0074974094 0.009904047 0.0032502627 0.006519612 0.008319497 0.0054219817
0.010205288 -0.0020318194 0.012108513 0.011545603 0.005273909 -0.00088360405 0.0023811173 -0.0104432795
-0.0051657567 0.008841212 -0.00084797636 0.0072789635 0.0023086858 0.0081963735 0.008378839 0.0017599051
0.0041907527 0.007020841 0.00077433256 0.009037966 -0.019074773 0.008940207 0.004559521 0.011966001
0.009391974 -0.00085891644 0.0027936148 0.0022600633 0.009243609 0.0015467656 0.00809097 0.0055464036
