best_model.pt (torch, 822882 bytes, 26 tensors)

model.0.0.weight f4 [32, 1, 3, 3]
-0.059885662 0.079989895 -0.13051978 0.065931045 0.12139505 0.03880751 0.19287346 -0.40016612
0.09430193 0.1391588 0.03858146 -0.22878374 0.20001487 0.16452703 0.16568734 -0.38005713
-0.3203205 0.10949196 0.14775829 0.14676751 0.30327663 0.14327435 -0.10637803 0.35239774
0.006029455 0.25548896 0.09689583 -0.17227529 0.2942716 -0.2413815 -0.117963076 -0.024882466
-0.04980765 0.24898516 0.29305553 -0.24511735 -0.26622763 0.2591015 0.19157551 0.2630867
-0.14611395 -0.19987555 -0.3239291 0.12992845 0.14138016 -0.21312302 -0.15772483 -0.08991714
-0.33525077 -0.14355575 0.3271673 -0.12078196 0.03718619 -0.12473384 -0.21345904 0.286482
-0.09961694 0.056206733 0.107456036 -0.07169002 -0.104969405 0.25115216 -0.22829376 0.23870763
-0.052982654 -0.057096828 0.26550555 0.30260655 0.14366715 -0.19598407 -0.15504941 -0.23223695
-0.12814932 0.027750181 0.0070149377 0.2861006 0.25332442 -0.033407446 0.080813535 -0.31033188
-0.1883153 -0.28541777 -0.07837571 -0.2672919 0.15150276 0.20147665 -0.17468065 0.1462931
0.14053163 -0.07512564 -0.124162436 0.19449997 0.06096783 0.098699085 0.28030613 0.1343825
0.34770674 0.14179446 0.13386936 -0.05147202 0.2674495 0.056012377 0.073530465 0.17181313
-0.21712416 -0.2923975 0.04523638 -0.16090891 -0.009754138 0.23081063 0.15523465 0.1429358
-0.27373046 -0.10649633 -0.08569416 0.2843263 0.103651784 0.31907904 -0.24809435 -0.12326022
0.35088193 -0.32177067 -0.103056416 -0.19880521 -0.0377862 -0.10577351 -0.28861308 -0.17636508
0.23952858 -0.2603221 0.23365851 -0.2430226 0.17226861 0.2874218 -0.18263689 -0.05218893
0.1404723 -0.21317528 -0.0037098425 -0.16808112 -0.1909015 0.26431108 0.3398611 0.062166404
0.15494365 0.13572347 -0.19196929 0.16251822 -0.3279454 -0.1704905 -0.10625065 0.28127262
-0.31053928 0.19215015 0.18183528 -0.12886296 -0.23176154 0.03250696 -0.21688874 0.27926317
-0.06579128 0.13831414 -0.30981508 -0.13688032 0.28509337 0.11065351 -0.31385434 0.23561455
-0.3733337 -0.2139109 -0.1500646 0.11580226 -0.08941292 -0.04825678 -0.02700976 -0.003646455
-0.04098661 -0.17717914 -0.062147375 0.29489207 -0.0415721 -0.15970954 0.09017637 -0.3536236
0.18437183 0.1254284 0.06873341 0.26593122 -0.15580271 0.25755113 0.30376962 -0.22035316
-0.048367742 -0.029292097 0.13491556 -0.004517415 0.2570621 0.05618587 -0.07484708 -0.30434218
-0.14456682 0.14534034 0.29594016 -0.09586738 0.2605305 -0.25119877 0.09888271 -0.043446224
-0.0006064436 -0.16964726 -0.23313186 0.39627084 -0.0023215187 -0.12469185 0.3911335 -0.20688795
-0.12889381 -0.10307153 0.15191124 0.23746794 -0.3043389 0.2043732 -0.038015842 0.07291959
-0.082006104 -0.08305466 0.056846373 0.21829773 0.0152865695 0.13878848 -0.2748548 -0.093064435
-0.0077533126 -0.23690404 -0.28423202 0.0060925 -0.20040615 0.09861765 -0.0090099 0.13123299
-0.112863705 -0.110904716 0.2303828 -0.2231502 -0.26425967 0.16492637 0.33520332 -0.046802934
-0.2676208 0.010125684 0.19273598 0.005690083 0.17134902 0.29220474 -0.2544236 -0.19680591
00000000: ab4a 75bd bed1 a33d faa6 05be db06 873d
00000010: f89d f83d a0f4 1e3d 9f80 453e 93e2 ccbe
00000020: 5f21 c13d a57f 0e3e 9807 1e3d 4946 6abe
00000030: b3d0 4c3e c679 283e f1a9 293e d996 c2be
00000040: 0c01 a4be 523d e03d f34d 173e 394a 163e
00000050: 1347 9b3e 83b6 123e b9dc d9bd 7a6d b43e
00000060: bc92 c53b 73cf 823e 5271 c63d ef68 30be
00000070: c4aa 963e b62c 77be a096 f1bd 50d6 cbbc
00000080: 1b03 4cbd f7f5 7e3e 600b 963e 0b00 7bbe
00000090: fd4e 88be f4a8 843e 5f2c 443e 4db3 863e
000000a0: e59e 15be 2dac 4cbe 09da a5be f70b 053e
000000b0: f6c5 103e ec3c 5abe 9e82 21be 7a26 b8bd
000000c0: fda5 abbe 4700 13be 7982 a73e 885c f7bd
000000d0: 8c50 183d 7574 ffbd 0295 5abe c5ad 923e
000000e0: f703 ccbd 0839 663d e911 dc3d 38d2 92bd
000000f0: 33fa d6bd 0497 803e d7c5 69be c66f 743e
00000100: 5704 59bd 5dde 69bd 58f0 873e 3fef 9a3e
00000110: 7b1d 133e 0cb0 48be 46c5 1ebe 86cf 6dbe
00000120: 9339 03be 5954 e33c 90dd e53b c77b 923e
00000130: bdb3 813e 3fd6 08bd 9181 a53d d2e3 9ebe
00000140: bad5 40be 4722 92be 7283 a0bd 7cda 88be
00000150: 8a23 1b3e e54f 4e3e 7cdf 32be dccd 153e
00000160: 86e7 0f3e 79db 99bd e048 febd 002b 473e
00000170: 67b9 793d bf22 ca3d 4984 8f3e 919b 093e
00000180: 9e06 b23e 9132 113e 0d15 093e 53d4 52bd
00000190: 24ef 883e 3c6d 653d 2497 963d c8ef 2f3e
000001a0: cc55 5ebe 20b5 95be c849 393d 4ec5 24be
000001b0: d2cf 1fbc 9f59 6c3e d5f5 1e3e c35d 123e
000001c0: 6626 8cbe bf1a dabd 6b80 afbd 3793 913e
000001d0: 6347 d43d 545e a33e 720c 7ebe db6f fcbd
000001e0: cca6 b33e 20bf a4be 3e0f d3bd 9893 4bbe
000001f0: b4c5 1abd c89f d8bd 18c5 93be 0c99 34be
00000200: fb46 753e f048 85be 2d44 6f3e ebda 78be
00000210: 2f67 303e f328 933e 2a05 3bbe 0fc4 55bd
00000220: f8d7 0f3e 9f4a 5abe d420 73bb 751d 2cbe
00000230: af7b 43be c853 873e 4602 ae3e 33a2 7e3d
00000240: 8ca9 1e3e 18fb 0a3e 9993 44be 2d6b 263e
00000250: 76e8 a7be 1095 2ebe f199 d9bd f702 903e
00000260: 01ff 9ebe 02c3 443e 0733 3a3e a7f4 03be
00000270: e652 6dbe 0526 053d 1518 5ebe 95fb 8e3e
00000280: 94bd 86bd 39a2 0d3e 15a0 9ebe 5b2a 0cbe
00000290: c2f7 913e 4f9e e23d 84b1 a0be f144 713e
000002a0: 9825 bfbe 750b 5bbe 89aa 19be bc29 ed3d
000002b0: 1f1e b7bd e7a8 45bd 9243 ddbc 5df9 6ebb
000002c0: 93e1 27bd 736e 35be 3f8e 7ebd 18fc 963e
000002d0: 8247 2abd e68a 23be 64ae b83d 270e b5be
000002e0: f8cb 3c3e 4d70 003e 1ac4 8c3d 2328 883e
000002f0: bf8a 1fbe bedd 833e b187 9b3e 42a4 61be
00000300: 411d 46bd fbf5 efbc 4e27 0a3e d306 94bb
00000310: a59d 833e 2823 663d 6d49 99bd bdd2 9bbe
00000320: 5309 14be 19d4 143e 7885 973e 1e56 c4bd
00000330: 4164 853e 209d 80be 0583 ca3d abf4 31bd
00000340: bef9 1eba 03b8 2dbe 1eba 6ebe 03e4 ca3e
00000350: 9f24 18bb 715e ffbd a642 c83e 6fda 53be
00000360: bdfc 03be 2b17 d3bd 9f8e 1b3e cc2a 733e
00000370: 4fd2 9bbe 3547 513e 80b6 1bbd de56 953d
00000380: d1f2 a7bd 9018 aabd bed7 683d 7189 5f3e
00000390: 8574 7a3c 911e 0e3e c5b9 8cbe 9198 bebd
000003a0: 800f febb f996 72be dc86 91be 98a3 c73b
000003b0: 4537 4dbe 0df8 c93d 429e 13bc f161 063e
000003c0: 1625 e7bd 0322 e3bd 78e9 6b3e 7c81 64be
000003d0: 0b4d 87be 75e2 283e c59f ab3e 6fb4 3fbd
000003e0: 9805 89be 32e6 253c 955c 453e e073 ba3b
000003f0: 1e76 2f3e dc9b 953e cf43 82be 7d87 49be

model.0.0.bias f4 [32]
-0.18491088 0.2518551 -0.046020545 0.32150996 -0.2923084 -0.21958967 0.27560046 -0.25560978
-0.14621863 0.04892004 0.025318265 0.18822515 0.25254807 -0.06084135 -0.124239996 -0.21956235
0.09391982 -0.36541638 -0.17076239 0.15584144 -0.34748784 0.15144005 0.1992283 0.12665987
-0.24060914 -0.16880795 -0.33729446 0.01771323 0.2570846 -0.3699046 -0.11249498 -0.14953947
00000000: 4759 3dbe 27f3 803e 0a80 3cbd f49c a43e
00000010: 72a9 95be 1ddc 60be 811b 8d3e 49df 82be
00000020: 56ba 15be 6160 483d 4068 cf3c 18be 403e
00000030: fb4d 813e c834 79bd 8a71 febd f4d4 60be
00000040: 0959 c03d db17 bbbe 56dc 2ebe e694 1f3e
00000050: ede9 b1be 1a13 1b3e 8102 4c3e 20b3 013e
00000060: 3e62 76be fedb 2cbe dcb1 acbe 561b 913c
00000070: 98a0 833e 2364 bdbe c563 e6bd e020 19be

model.0.2.weight f4 [32]
1.0790297 1.0200596 0.9695971 1.0348593 1.0474718 0.9246959 1.0466518 0.9399334
0.9991398 0.93750894 0.96037394 0.99024194 0.9198217 0.8655211 0.9524656 0.9612741
0.9155455 0.9394482 0.8904608 1.0219026 0.94183433 0.9937319 1.0168273 0.9860142
1.0592936 0.94989496 1.0094568 1.0451183 1.0770171 1.0376023 1.0058949 0.8866103
00000000: a51d 8a3f 5091 823f 8437 783f 4576 843f
00000010: 8e13 863f dfb8 6c3f b0f8 853f 7a9f 703f
00000020: a0c7 7f3f 9600 703f 11db 753f 7f80 7d3f
00000030: 6f79 6b3f ca92 5d3f c9d4 733f 0f16 763f
00000040: 3161 6a3f ad7f 703f 3df5 633f b4cd 823f
00000050: 0e1c 713f 3765 7e3f 6627 823f 6d6b 7c3f
00000060: ef96 873f 512c 733f e135 813f 70c6 853f
00000070: b2db 893f 27d0 843f 2ac1 803f e5f8 623f

model.0.2.bias f4 [32]
-0.08265611 0.16952474 0.15592253 0.14115052 0.004758216 0.084224425 0.09613711 0.14172742
0.031436585 -0.004820498 0.1901046 0.16471928 0.12251119 -0.053841297 0.052009054 0.113876164
0.035426337 -0.022278016 0.07711995 0.0019119919 0.027033081 0.1296096 0.08408567 -0.09169796
-0.035126925 0.17720665 0.13399392 0.08131039 0.12476325 -0.028149573 0.076272465 0.047621418
00000000: 9b47 a9bd e597 2d3e 28aa 1f3e c389 103e
00000010: cfea 9b3b db7d ac3d 88e3 c43d fe20 113e
00000020: a6c3 003d 45f5 9dbb c8aa 423e 2cac 283e
00000030: 26e7 fa3d b188 5cbd 7207 553d e837 e93d
00000040: 351b 113d 6380 b6bc 10f1 9d3d cd9b fa3a
00000050: 7b74 dd3c 61b8 043e 1c35 ac3d 24cc bbbd
00000060: 40e1 0fbd a975 353e b435 093e 1086 a63d
00000070: e083 ff3d ef99 e6bc bd34 9c3d ad0e 433d

model.0.2.running_mean f4 [32]
0.0001828474 0.3207509 0.0242523 0.3283835 0.00014331832 0.34104013 0.28186128 0.00141373
0.0020462954 0.20922524 0.028817976 0.2512074 0.056758374 0.25638124 0.050168637 0.0027806044
0.3377443 4.6091754e-05 0.40971747 0.17483203 0.00018803889 0.030814143 0.24570698 0.120319635
0.00021281745 0.0461154 0.00064388313 0.08582818 0.2973443 3.195356e-05 0.012698242 0.2338652
00000000: baba 3f39 7639 a43e c2ac c63c e221 a83e
00000010: b847 1639 d09c ae3e 1f50 903e e84c b93a
00000020: 241b 063b 243f 563e ad13 ec3c 429e 803e
00000030: 787b 683d 6744 833e a17d 4d3d cd3a 363b
00000040: d2ec ac3e a552 4138 7dc6 d13e 2b07 333e
00000050: 4e2c 4539 f16d fc3c 9c9a 7b3e 246a f63d
00000060: c027 5f39 80e3 3c3d 44ca 283a afc6 af3d
00000070: 833d 983e e005 0638 4a0c 503c 5c7a 6f3e

model.0.2.running_var f4 [32]
2.0647165e-05 0.0056901355 0.015175373 0.0046433583 2.589931e-05 0.055563264 0.002117129 0.00035664806
0.00036805388 0.0106609445 0.017768674 0.005327082 0.012249481 0.024819056 0.0029163805 0.0007010498
0.021996615 6.612969e-06 0.0696296 0.0017521082 3.8201684e-05 0.0112267835 0.0053243325 0.0025465477
1.8023826e-05 0.0023804505 6.65375e-05 0.0028986726 0.0049304105 5.399581e-06 0.0052517266 0.026121005
00000000: 7333 ad37 5174 ba3b 21a2 783c 5027 983b
00000010: 5842 d937 4e96 633d 88bf 0a3b 7efc ba39
00000020: 5bf7 c039 3eab 2e3c 9c8f 913c cd8e ae3b
00000030: 0cb2 483c 5551 cb3c bf20 3f3b a8c6 373a
00000040: 3f32 b43c f9e4 dd36 f799 8e3d ffa6 e53a
00000050: bf3a 2038 8bf0 373c bd77 ae3b fbe3 263b
00000060: df31 9737 5501 1c3b 0c8a 8b38 a8f7 3d3b
00000070: 488f a13b 0c2e b536 ad16 ac3b b8fb d53c

model.1.0.weight f4 [32, 32, 3, 3]
0.00045156307 0.058453195 0.06877737 -0.05615099 0.0213851 0.010264652 -0.021989351 -0.018280031
0.075467676 0.021382531 -0.031881757 -0.07352854 0.0005137799 -0.046611726 -0.056218505 -0.0027836312
-0.08616999 -0.019026022 -0.057116523 0.007807521 -0.033112798 -0.021387314 0.038033742 -0.020855762
0.035016693 -0.03193096 0.041743577 0.07110454 -0.044147104 0.052430637 0.014561981 -0.05948425
0.012417181 -0.009752589 0.0056794714 -0.017620087 -0.05383911 -0.04362927 -0.076047115 -0.10024962
-0.0084575415 -0.08157059 -0.054214064 -0.043335486 0.0046349647 -0.022757018 -0.020715846 0.0057204333
0.018817041 0.0571717 -0.06320439 -0.028947148 -0.025242155 -0.07173509 -0.03673225 0.023340212
0.009006914 0.034828473 0.013122096 -0.03008016 -0.0073630176 -0.02155045 -0.0034263758 -0.016870193
-0.042863503 -0.045484807 -0.06134594 -0.022002893 -0.06396254 0.006940586 0.045062654 -0.07898012
0.040189903 -0.014459366 -0.017200915 -0.033496898 -0.00064090174 -0.028363757 -0.057674106 -0.03053195
-0.056941852 -0.026436755 0.004818988 0.034476627 0.0494199 0.008401494 0.007828602 0.105560735
0.006212189 0.022139331 -0.068372935 -0.04231773 0.001958414 -0.06237063 -0.036421884 -0.022557685
0.046255425 0.032877635 0.06836496 0.052215233 -0.013453071 -0.045999262 -0.01794019 -0.017623436
-0.02014225 -0.042706206 -0.06824066 0.04529906 -0.07906553 -0.070962146 0.041963413 -0.005054739
-0.0077625313 0.010659008 0.047291167 -0.034481935 0.0087116975 -0.0144472085 -0.016111441 0.03175393
0.08140932 0.015598839 -0.069628514 -0.017044643 -0.074948825 -0.06642902 0.019024316 -0.0176203
0.07665785 0.04559182 0.029549975 0.013712262 -0.07179986 0.051270373 -0.026713898 0.0117516965
0.053956173 -0.0474198 0.019561706 -0.03792331 0.023892274 -0.00180913 -0.07873694 -0.036544032
0.08964394 -0.03858235 -0.004045207 0.046845395 -0.02758778 -0.08352943 0.035378747 0.024937382
-0.0653033 0.08718945 0.044946246 0.038980078 0.00943681 -0.025159974 0.03773896 -0.015989294
-0.033978056 -0.03439603 0.012648338 0.056826998 0.027116174 0.03445374 0.013931961 -0.03979968
0.004982142 0.0023035435 -0.0724046 0.043254726 0.11228374 0.011464222 0.04704677 0.09677918
-0.10336194 -0.0443994 0.044167705 -0.028535746 -0.006116312 -0.036705073 8.715087e-05 -0.07519501
0.019408036 -0.00028208236 -0.09375465 -0.034680042 -0.02195697 -0.037672326 -0.016076611 -0.041214038
0.012808929 -0.012452437 0.05815105 0.06380396 -0.019470228 0.020402664 0.03695426 -0.04598897
0.04635338 0.09153447 -0.05850786 0.005427668 0.056846745 0.05476342 0.016028596 -0.07497671
-0.0022273771 0.018557668 -0.029334955 0.029757908 0.06562363 -0.03634263 0.03271269 0.06183469
-0.10201206 -0.050413433 -0.0018958055 -0.13120314 -0.050068468 -0.10106043 -0.07438837 -0.024596695
0.009972234 0.0031891488 -0.081340134 0.044533063 0.034997124 -0.05279027 -0.045528762 0.03227339
-0.010098233 -0.015063982 0.05457647 0.06006249 -0.0046655033 -0.05676647 0.028330076 -0.13316347
-0.0016532096 0.05146256 0.00522747 -0.052459355 -0.07576586 0.006130098 0.10752517 -0.022102611
-0.080643654 0.05869289 0.015145342 -0.071420714 0.03578266 -0.019539509 -0.07088925 -0.039481062
00000000: c5bf ec39 9e6c 6f3d 26db 8c3d 95fe 65bd
00000010: ce2f af3c 122d 283c 0323 b4bc 01c0 95bc
00000020: cc8e 9a3d 6b2a af3c 7296 02bd 2296 96bd
00000030: 2faf 063a f0eb 3ebd 6045 66bd 956d 36bb
00000040: e479 b0bd 76dc 9bbc 04f3 69bd 3cd6 ff3b
00000050: 49a1 07bd 7334 afbc 45c9 1b3d b4d9 aabc
00000060: aa6d 0f3d 0aca 02bd 50fb 2a3d 429f 913d
00000070: 98d3 34bd 82c1 563d 6095 6e3c c2a5 73bd
00000080: 6f71 4b3c 53c9 1fbc dc1a ba3b 0058 90bc
00000090: 6686 5cbd 9bb4 32bd 97be 9bbd ac4f cdbd
000000a0: 8091 0abc 7b0e a7bd 910f 5ebd 8d80 31bd
000000b0: e7e0 973b ed6c babc 47b4 a9bc 7972 bb3b
000000c0: 3226 9a3c df2c 6a3d 4e71 81bd 9222 edbc
000000d0: a3c8 cebc d9e9 92bd 8e74 16bd f933 bf3c
000000e0: bc91 133c 4da8 0e3d 0ffe 563c ab6a f6bc
000000f0: 7845 f1bb 928a b0bc 0c8d 60bb 5c33 8abc
00000100: a491 2fbd 474e 3abd e145 7bbd 693f b4bc
00000110: cbfe 82bd db6d e33b 9e93 383d 54c0 a1bd
00000120: 2b9e 243d fae6 6cbc efe8 8cbc 0b34 09bd
00000130: 3002 28ba 1c5b e8bc af3b 6cbd 241e fabc
00000140: dc3b 69bd e591 d8bc 9ae8 9d3b 5d37 0d3d
00000150: 856c 4a3d 6ba6 093c 8943 003c 3a30 d83d
00000160: 9e8f cb3b 8b5d b53c 1c07 8cbd 5b55 2dbd
00000170: bc58 003b 5978 7fbd 1d2f 15bd e5ca b8bc
00000180: 5476 3d3d b3aa 063d ee02 8c3d a4df 553d
00000190: 456a 5cbc b969 3cbd 4ef7 92bc 065f 90bc
000001a0: 5c01 a5bc b4ec 2ebd c2c1 8bbd 828b 393d
000001b0: 1ced a1bd 9a54 91bd d4e1 2b3d 39a2 a5bb
000001c0: d55c febb 1fa3 2e3c 62b4 413d ee3c 0dbd
000001d0: 82bb 0e3c fcb3 6cbc 24fc 83bc 6910 023d
000001e0: eeb9 a63d 4692 7f3c 6599 8ebd 35a1 8bbc
000001f0: c57e 99bd f00b 88bd e2d8 9b3c 7358 90bc
00000200: cafe 9c3d 7dbe 3a3d ca12 f23c 65a9 603c
00000210: ce0b 93bd e200 523d 1bd7 dabc 308a 403c
00000220: 2601 5d3d 443b 42bd df3f a03c 7955 1bbd
00000230: bbb9 c33c 5420 edba d540 a1bd 32af 15bd
00000240: 3e97 b73d 8708 1ebd a88d 84bb f5e0 3f3d
00000250: c5ff e1bc 7a11 abbd 4ee9 103d 7b49 cc3c
00000260: bdbd 85bd 6290 b23d 8e19 383d 93a9 1f3d
00000270: da9c 1a3c 4a1c cebc 2b94 1a3d fbfb 82bc
00000280: 932c 0bbd dae2 0cbd fa3a 4f3c 6dc3 683d
00000290: bd22 de3c 5d1f 0d3d e142 643c fd04 23bd
000002a0: 3c41 a33b 0cf7 163b dd48 94bd de2b 313d
000002b0: 04f5 e53d 6fd4 3b3c 1db4 403d 2a34 c63d
000002c0: 6daf d3bd 25dc 35bd 32e9 343d ccc3 e9bc
000002d0: 586b c8bb 0f58 16bd c4c4 b638 d7ff 99bd
000002e0: 9afd 9e3c 74e4 93b9 7002 c0bd a90c 0ebd
000002f0: 1bdf b3bc 4c4e 1abd 19b3 83bc 0dd0 28bd
00000300: 8bdc 513c 4e05 4cbc cc2f 6e3d a7ab 823d
00000310: 0780 9fbc 7d23 a73c 5a5d 173d ee5e 3cbd
00000320: 0bdd 3d3d 6d76 bb3d f0a5 6fbd 94da b13b
00000330: 22d8 683d 9c4f 603d 674e 833c 648d 99bd
00000340: 30f9 11bb 4006 983c dc4f f0bc dbc6 f33c
00000350: af65 863d 02dc 14bd befd 053d 5f46 7d3d
00000360: b3eb d0bd 517e 4ebd ad7c f8ba 1e5a 06be
00000370: 9814 4dbd c5f8 cebd ee58 98bd 027f c9bc
00000380: 9562 233c 0a01 513b a895 a6bd 4d68 363d
00000390: 2559 0f3d 9c3a 58bd 5e7c 3abd 1a31 043d
000003a0: 0f73 25bc ecce 76bc 948b 5f3d 1604 763d
000003b0: 14e1 98bb f583 68bd 7a14 e83c 015c 08be
000003c0: 82b0 d8ba 68ca 523d 324b ab3b 9fdf 56bd
000003d0: 222b 9bbd fdde c83b 2836 dc3d 8910 b5bc
000003e0: 8028 a5bd f567 703d 2b24 783c 0645 92bd
000003f0: d790 123d 5211 a0bc 622e 91bd e5b6 21bd

model.1.0.bias f4 [32]
-0.014292012 -0.03520694 -0.019524265 0.033401303 -0.013476641 -0.06526086 -0.046073318 -0.1014913
-0.023375107 -0.022367848 -0.08630955 -0.012591161 -0.057606105 -0.08967581 -0.14889415 -0.07498193
-0.02818299 -0.009301103 -0.06158461 -0.0063763084 -0.1489646 -0.052735243 -0.11538914 0.051347617
-0.025974844 -0.049024854 -0.03767395 -0.019885236 -0.05923888 -0.046034116 0.008682921 -0.15939024
00000000: 0b29 6abc 2735 10bd 5af1 9fbc cecf 083d
00000010: 21cd 5cbc 7ca7 85bd 60b7 3cbd acda cfbd
00000020: 277d bfbc c73c b7bc 10c3 b0bd 284b 4ebc
00000030: 61f4 6bbd f3a7 b7bd b577 18be 2090 99bd
00000040: 04e0 e6bc a763 18bc 2540 7cbd 5af0 d0bb
00000050: 2d8a 18be e900 58bd 2451 ecbd e151 523d
00000060: 32c9 d4bc 49ce 48bd 0050 1abd 5de6 a2bc
00000070: 78a4 72bd 458e 3cbd cf42 0e3c 3237 23be

model.1.2.weight f4 [32]
0.9733822 1.0314204 0.9108629 0.8822182 1.0292066 1.0411732 0.8493585 0.997156
0.95659566 0.93858767 0.8900944 1.0390027 0.8550625 0.81717646 0.9434235 0.92004263
0.99660784 1.0259335 0.9766414 1.0729002 0.98322165 0.97647244 1.0146582 0.88357687
1.00454 0.9770683 0.8983586 0.9305588 1.0287242 0.97986394 0.9590677 0.9865506
00000000: 932f 793f 9505 843f 502e 693f 0dd9 613f
00000010: 0bbd 833f 2a45 853f 8f6f 593f 9e45 7f3f
00000020: 74e3 743f 4847 703f 3add 633f 0afe 843f
00000030: 60e5 5a3f 7a32 513f 3484 713f ea87 6b3f
00000040: b121 7f3f ca51 833f 2c05 7a3f cb54 893f
00000050: 6ab4 7b3f 19fa 793f 52e0 813f 1832 623f
00000060: c494 803f 2621 7a3f d4fa 653f 1a39 6e3f
00000070: 3cad 833f 5dd8 7a3f 7685 753f 958e 7c3f

model.1.2.bias f4 [32]
0.2663061 0.12948847 -0.20638868 0.076671265 0.28664526 0.32369572 -0.031043163 0.22542787
-0.16224171 -0.18533707 -0.18280786 0.32015806 -0.083998844 -0.032292258 -0.2398153 -0.19533403
0.16142888 0.2896819 -0.2935811 0.33480185 0.18992336 -0.02909388 0.24390893 -0.09273053
0.2833429 0.1383607 0.08596511 0.054081682 0.31124064 -0.020270662 -0.117531136 -0.23418479
00000000: 4659 883e a098 043e 8e57 53be d305 9d3d
00000010: 2bc3 923e 72bb a53e 3b4e febc 90d6 663e
00000020: b122 26be 00c9 3dbe fc31 3bbe c2eb a33e
00000030: 9607 acbd e344 04bd 2492 75be a505 48be
00000040: 9d4d 253e 3051 943e 4350 96be 266b ab3e
00000050: 457b 423e 4a56 eebc 43c3 793e 81e9 bdbd
00000060: 5212 913e 6dae 0d3e 7a0e b03d c184 5d3d
00000070: ef5a 9f3e a90e a6bc 2ab4 f0bd 23ce 6fbe

model.1.2.running_mean f4 [32]
0.21535566 0.8229229 0.6071024 1.3514048 0.78746676 0.037934385 0.69111866 0.22323672
1.1042619 0.18823993 1.0268849 0.17758119 1.1010436 0.16481678 0.12477876 0.895631
0.4014775 0.16619442 0.576596 0.13997352 0.62995183 0.86233866 0.07354468 0.55557007
0.13455233 0.5918725 1.107167 1.6311265 0.051676102 0.24819048 0.25370952 0.14103307
00000000: 3286 5c3e 13ab 523f 106b 1b3f d5fa ac3f
00000010: 6c97 493f 1661 1b3d 27ed 303f 2b98 643e
00000020: 7458 8d3f f8c1 403e f770 833f d8d7 353e
00000030: ffee 8c3f bbc5 283e 028c ff3d 1348 653f
00000040: 758e cd3e df2e 2a3e cc9b 133f 3855 0f3e
00000050: 8644 213f 3ac2 5c3f 989e 963d d739 0e3f
00000060: 16c8 093e f584 173f a6b7 8d3f c1c8 d03f
00000070: 52aa 533d a525 7e3e 37e6 813e f96a 103e

model.1.2.running_var f4 [32]
0.3663926 1.2656544 1.472847 2.2853754 0.8283219 0.054090455 1.5047712 0.68389904
2.7203581 0.6924962 3.5224438 0.26060003 1.8727574 2.0184672 1.5836213 4.607664
0.5805426 0.8510467 1.3087064 0.3211985 1.6152874 1.78866 0.18100381 1.0087792
0.13992901 4.076932 1.1999284 3.1024897 0.090831816 0.6980024 0.79723424 0.84764636
00000000: d097 bb3e f700 a23f 4086 bc3f 9743 1240
00000010: e70c 543f f48d 5d3d 589c c03f 0214 2f3f
00000020: 591a 2e40 6e47 313f b86f 6140 5e6d 853e
00000030: 84b6 ef3f 912e 0140 1ab4 ca3f fc71 9340
00000040: 719e 143f 32de 593f b183 a73f 2174 a43e
00000050: bdc1 ce3f d0f2 e43f 1059 393e ad1f 813f
00000060: 8d49 0f3e 3a76 8240 4197 993f 318f 4640
00000070: 0806 ba3d 49b0 323f 8b17 4c3f 5aff 583f

model.2.0.weight f4 [64, 32, 3, 3]
-0.04742013 -0.091709994 -0.03142348 -0.054357633 -0.076483116 0.0954731 -0.023507431 -0.033345185
0.083623186 -0.09096507 -0.008600718 -0.008636972 0.0038932844 -0.007163661 -0.017665047 -0.11046525
0.017735003 -0.01850691 0.06540664 -0.053392857 -0.028070768 -0.016004542 -0.014771339 -0.07038837
0.04257262 0.04359299 0.033803754 -0.07287566 -0.016973848 -0.04618926 -0.0834892 -0.020564621
0.0433241 -0.030131316 -0.040932424 -0.07189941 -0.064962186 -0.023946574 0.07550461 -0.010304368
-0.016973728 0.15045695 -0.087629355 -0.010152164 0.14645219 0.024854152 0.04667764 -0.028120987
-0.03921159 0.031491358 -0.07658489 -0.019568374 -0.034130417 -0.012783127 -0.06873211 0.009793958
-0.016224902 -0.009888676 -0.06804955 -0.06699677 -0.09627986 -0.044483613 -0.03174222 0.02803019
-0.0004400032 0.0021204704 0.023463529 -0.04318907 -0.008108995 0.027891414 -0.04269556 -0.05149355
0.021460896 0.0047274614 0.0100978855 -0.11075821 0.009300313 0.028372021 -0.009296558 -0.019709613
0.08085412 0.10813664 0.07499393 -0.011216187 0.0417098 0.10881894 0.013980745 0.011174792
0.068405285 0.08092176 0.03242766 -0.0023930517 0.00067042204 0.030548785 0.0028701783 -0.0009843749
0.041211504 -0.0030570694 -0.008619244 -0.03596735 -0.024637485 -0.045455728 -0.047435943 -0.032523777
-0.084537014 0.046083566 0.02524268 -0.07780177 -0.004337571 -0.06791115 0.05803378 -0.047616784
-0.073899694 0.05478749 -0.05113562 -0.03125609 0.083050944 0.00681882 -0.0051955106 -0.119259365
-0.09945377 -0.07015259 -0.02537333 -0.019739065 -0.012693926 -0.0013612139 -0.019479746 0.049122356
-0.088745594 -0.04132196 -0.03936299 -0.03015517 -0.008173677 -0.0065364838 -0.05868817 -0.017955484
-0.04079286 -0.05523719 -0.047742743 0.009392928 0.0035145856 -0.025042752 -0.052040603 -0.01841239
-0.009555982 -0.004727791 0.020112945 -0.066262536 0.11581979 0.09609225 -0.004761385 0.06006509
0.024349857 -0.085879974 -0.11071038 -0.0845316 0.001384043 -0.09966476 -0.029592592 -0.093365625
-0.10604003 -0.00654466 -0.028426936 0.009431424 -0.017265882 0.027467145 0.069438525 0.0009588947
0.012090399 0.021395512 0.0015849705 -0.03197653 0.004282849 0.030893756 0.0088642 -0.04570441
-0.0006324593 -0.03774378 -0.045959096 -0.07546273 0.0037512246 0.0062514753 -0.034057736 -0.025522547
0.002859587 -0.08268035 0.0693768 -0.009616267 -0.04386331 0.051481664 -0.0060015796 0.04345291
0.040179487 0.014664537 -0.07132609 -0.0051853843 0.035173986 -0.06831843 -0.06263314 -0.008979611
-0.0038235374 -0.014373365 -0.0011579671 0.041000657 -0.042168964 -0.044350598 -0.012421609 0.040529568
-0.009594956 0.07898517 -0.026223784 -0.047074407 -0.010406559 -0.028272374 -0.07558671 0.016946098
0.012004923 -0.04818621 0.019676596 -0.05270219 -0.036857814 -0.059424546 0.0219226 -0.042313755
-0.0636836 -0.020596372 -0.000995061 0.051394045 -0.024572864 -0.053176012 -0.006861979 -0.035880595
-0.088352606 0.020412687 -0.08735769 -0.00025735426 -0.0034046487 -0.044089798 -0.02221227 -0.0110358475
-0.09967732 -0.08993654 0.063612886 -0.07648167 0.018260906 0.008967132 0.006466265 -0.042142984
0.01423129 -0.052991733 0.003694922 0.03393056 -0.032301407 -0.033365242 -0.08734764 -0.036019832
00000000: 9c3b 42bd 73d2 bbbd e8b5 00bd 1ca6 5ebd
00000010: 2ea3 9cbd 6787 c33d a892 c0bc f694 08bd
00000020: a242 ab3d e54b babd 07ea 0cbc 1682 0dbc
00000030: 7926 7f3b 25bd eabb 4ab6 90bc 9b3b e2bd
00000040: ff48 913c ce9b 97bc ebf3 853d 78b2 5abd
00000050: abf4 e5bc f51b 83bc 7c03 72bc c727 90bd
00000060: a160 2e3d 908e 323d ce75 0a3d d63f 95bd
00000070: bd0c 8bbc f330 3dbd 63fc aabd 2377 a8bc
00000080: 9d74 313d f3d5 f6bc c2a8 27bd ff3f 93bd
00000090: e50a 85bd 9b2b c4bc 29a2 9a3d a7d3 28bc
000000a0: 7d0c 8bbc 6311 1a3e 0577 b3bd 4355 26bc
000000b0: 90f7 153e ef9a cb3c 0e31 3f3d fc5d e6bc
000000c0: 559c 20bd 15fd 003d 8ad8 9cbd db4d a0bc
000000d0: 56cc 0bbd 5270 51bc 6cc3 8cbd d676 203c
000000e0: 16ea 84bc 1d04 22bc 905d 8bbd 9a35 89bd
000000f0: 602e c5bd 7334 36bd 2104 02bd 929f e53c
00000100: 3bb0 e6b9 97f7 0a3b 9636 c03c 06e7 30bd
00000110: 97db 04bc 897c e43c 8ae1 2ebd e7ea 52bd
00000120: c3ce af3c d2e8 9a3b 9a71 253c 33d5 e2bd
00000130: 5760 183c 716c e83c 9750 18bc 0e76 a1bc
00000140: d896 a53d be76 dd3d 6b96 993d 19c4 37bc
00000150: e5d7 2a3d 77dc de3d 7f0f 653c 7a16 373c
00000160: 1218 8c3d 4fba a53d ded2 043d bfd4 1cbb
00000170: 43bf 2f3a 7241 fa3c 9a19 3c3b 2406 81ba
00000180: 65cd 283d 1d59 48bb bb37 0dbc 8052 13bd
00000190: 8dd4 c9bc c92f 3abd 314c 42bd a737 05bd
000001a0: be21 adbd 1fc2 3c3d bdc9 ce3c 8956 9fbd
000001b0: 2f22 8ebb 0015 8bbd d4b4 6d3d d109 43bd
000001c0: b958 97bd d968 603d 9573 51bd 6306 00bd
000001d0: 9d16 aa3d 6870 df3b 1a3f aabb 413e f4bd
000001e0: 6bae cbbd 29ac 8fbd bbdb cfbc d2b3 a1bc
000001f0: 2ffa 4fbc c26a b2ba fd93 9fbc 8634 493d
00000200: 40c0 b5bd 3741 29bd 163b 21bd fa07 f7bc
00000210: e3ea 05bc 0030 d6bb 0263 70bd 6117 93bc
00000220: 6a16 27bd 6440 62bd e58d 43bd cce4 193c
00000230: f654 663b 7526 cdbc 8728 55bd 95d5 96bc
00000240: b290 1cbc 96eb 9abb e7c3 a43c a7b4 87bd
00000250: ed32 ed3d 03cc c43d 6405 9cbb d006 763d
00000260: 5a79 c73c d7e1 afbd 20bc e2bd e71e adbd
00000270: c768 b53a 0a1d ccbd 2a6c f2bc 7a36 bfbd
00000280: 842b d9bd 9674 d6bb 9bdf e8bc 4286 1a3c
00000290: 2e71 8dbc c702 e13c c935 8e3d 565e 7b3a
000002a0: cf16 463c a445 af3c c9be cf3a d2f9 02bd
000002b0: 2457 8c3b e714 fd3c 263b 113c 8c34 3bbd
000002c0: a0cb 25ba 3999 1abd 9b3f 3cbd 348c 9abd
000002d0: 1bd7 753b 2dd9 cc3b 2080 0bbd a914 d1bc
000002e0: e967 3b3b 5154 a9bd 6c15 8e3d 8c8d 1dbc
000002f0: 04aa 33bd 70de 523d e6a8 c4bb aefb 313d
00000300: 3f93 243d 8743 703c 6a13 92bd 28ea a9bb
00000310: 9912 103d 88ea 8bbd ce45 80bd 381f 13bc
00000320: 5094 7abb 437e 6bbc eec6 97ba 4ef0 273d
00000330: 5db9 2cbd f9a8 35bd 0184 4bbc 5502 263d
00000340: 2a34 1dbc fac2 a13d 43d3 d6bc 18d1 40bd
00000350: 4680 2abc 779b e7bc 34cd 9abd 8bd2 8a3c
00000360: 4cb0 443c e75e 45bd d030 a13c 40de 57bd
00000370: 38f8 16bd 2767 73bd 0697 b33c 3051 2dbd
00000380: 8c6c 82bd b9b9 a8bc b56c 82ba 9082 523d
00000390: 084d c9bc 17cf 59bd 74da e0bb 88f7 12bd
000003a0: 36f2 b4bd 8238 a73c 97e8 b2bd 81ed 86b9
000003b0: 8720 5fbb 8197 34bd 82f6 b5bc b3cf 34bc
000003c0: 9f23 ccbd a630 b8bd 7947 823d 6ca2 9cbd
000003d0: e597 953c e1ea 123c f6e2 d33b 1f9e 2cbd
000003e0: 5b2a 693c dc0d 59bd 8126 723b c5fa 0a3d
000003f0: 7b4e 04bd fea9 08bd 52e3 b2bd 8889 13bd

model.2.0.bias f4 [64]
-0.03117368 -0.074614674 -0.17383856 0.10385853 0.017447691 -0.13230364 -0.120056815 -0.012927334
-0.11291288 -0.061885465 -0.023985375 -0.046895012 -0.211016 -0.18466486 -0.12689745 -0.0920952
-0.24966407 -0.22268493 -0.040981717 -0.20279118 0.014084121 -0.05076334 -0.04079726 -0.23284616
0.017501673 -0.04143315 -0.0007576471 -0.18140924 -0.08799682 -0.18823946 0.012565897 -0.019856256
-0.05797878 -0.019440241 -0.20583194 0.0206918 -0.03629815 0.01611965 -0.0068984977 -0.061960056
0.059571765 -0.080919564 -0.14106461 -0.03570915 -0.071438156 0.0013585032 -0.08474718 -0.10803443
-0.08644477 -0.04526262 -0.085371785 -0.08613879 -0.16901055 -0.2782423 -0.035392642 -0.017089296
-0.11752158 -0.17206566 -0.08360626 -0.117700115 -0.1119716 -0.0013102894 -0.0348478 -0.0569033
00000000: f25f ffbc 94cf 98bd bc02 32be c8b3 d43d
00000010: 76ee 8e3c 9b7a 07be 59e0 f5bd 2bcd 53bc
00000020: de3e e7bd 9d7b 7dbd fa7c c4bc fc14 40bd
00000030: 9414 58be c918 3dbe 68f1 01be 699c bcbd
00000040: f0a7 7fbe 8507 64be 72dc 27bd 7ea8 4fbe
00000050: 16c1 663c 38ed 4fbd 071b 27bd 396f 6ebe
00000060: ab5f 8f3c cfb5 29bd d69c 46ba 58c3 39be
00000070: ad37 b4bd d8c1 40be 31e1 4d3c 96a9 a2bc
00000080: 287b 6dbd 2441 9fbc 9cc5 52be da81 a93c
00000090: 5ead 14bd 5b0d 843c cb0c e2bb d4c9 7dbd
000000a0: 8601 743d 28b9 a5bd 3e73 10be c243 12bd
000000b0: 2b4e 92bd ce0f b23a ee8f adbd 2841 ddbd
000000c0: f509 b1bd 4c65 39bd 67d7 aebd 8969 b0bd
000000d0: 1a11 2dbe c675 8ebe e0f7 10bd dafe 8bbc
000000e0: 27af f0bd fb31 30be c239 abbd c20c f1bd
000000f0: 5e51 e5bd 04be abba 91bc 0ebd 6f13 69bd

model.2.2.weight f4 [64]
1.0970997 1.0697325 0.871347 0.9981563 1.0453115 0.8760185 1.0155046 0.8464241
0.85288465 1.0334795 1.0675424 0.9420666 0.9037515 0.964036 0.869485 0.9045034
0.90189856 0.87378174 0.88056415 0.8981524 0.99505997 1.0586575 0.98196024 0.9269689
1.0044812 0.89190704 0.7579961 1.0860062 0.86691785 0.8792192 1.0385993 1.0070076
0.84271044 1.1209761 0.9960376 0.93849075 0.9744907 0.77549475 0.98866504 1.0222948
1.0522984 0.84285045 0.9810844 1.0167034 0.99111986 1.004639 0.9731675 0.79117125
0.7884481 1.0552685 0.95370823 0.8996104 0.880595 1.0644151 0.9966341 0.9044887
0.8393764 0.9381717 1.0690804 1.0485245 0.8629126 0.88186955 1.0209714 1.0430113
00000000: c36d 8c3f ffec 883f 9910 5f3f 2c87 7f3f
00000010: c4cc 853f c042 603f 0efc 813f 40af 583f
00000020: a656 5a3f 0e49 843f 3ba5 883f 472b 713f
00000030: 425c 673f 10cb 763f 9296 5e3f 898d 673f
00000040: d3e2 663f 29b0 5f3f a76c 613f 51ed 653f
00000050: 40bc 7e3f 1782 873f bf61 7b3f d54d 6d3f
00000060: d792 803f 0554 643f 080c 423f 4002 8b3f
00000070: 54ee 5d3f 8214 613f d2f0 843f a0e5 803f
00000080: dfbb 573f 257c 8f3f 52fc 7e3f ee40 703f
00000090: 3978 793f d386 463f 2719 7d3f 8eda 823f
000000a0: b7b1 863f 0cc5 573f 5928 7b3f 5623 823f
000000b0: 08ba 7d3f 0398 803f 8121 793f 338a 4a3f
000000c0: bcd7 493f 0a13 873f 3926 743f de4c 663f
000000d0: ad6e 613f c13e 883f 6a23 7f3f 928c 673f
000000e0: 5fe1 563f 052c 703f a0d7 883f 0d36 863f
000000f0: d7e7 5c3f 34c2 613f 31af 823f 6581 853f

model.2.2.bias f4 [64]
0.2814559 0.22562487 -0.23237342 0.191648 0.10188503 -0.15447704 0.107625015 0.0022811287
-0.22090402 0.32421622 0.28909025 0.23813869 -0.20029722 -0.22535005 -0.11197234 -0.17491543
-0.2105986 -0.21397859 0.29830903 -0.17820793 0.0146084 0.16282867 0.1019972 -0.2604585
0.104523435 0.0005353868 0.07951704 0.18409365 -0.059343584 -0.09169205 0.23026021 0.17695056
0.16423981 0.36892664 -0.25775266 -0.18212071 0.16752982 0.17175351 0.12559123 0.37334087
0.36596495 0.09437751 0.25913727 0.1198264 -0.0036554602 0.22662503 -0.12808566 0.040213685
-0.012359366 0.21687451 0.038403265 0.18714768 -0.24146125 -0.30277568 -0.05360428 0.014301957
-0.008313315 -0.28753552 0.3488196 0.3338756 0.055835087 0.123218864 0.25048348 0.15570125
00000000: fd1a 903e 350a 673e 4cf3 6dbe 603f 443e
00000010: 19a9 d03d 3b2f 1ebe 816a dc3d fd7e 153b
00000020: aa34 62be abff a53e a303 943e a1da 733e
00000030: b71a 4dbe 2ac2 66be c151 e5bd 081d 33be
00000040: 29a7 57be 341d 5bbe f6bb 983e 247c 36be
00000050: 1258 6f3c 8fbc 263e e8e3 d03d d15a 85be
00000060: 6210 d63d 3359 0c3a d4d9 a23d 0c83 3c3e
00000070: 4212 73bd 0bc9 bbbd 55c9 6b3e 8732 353e
00000080: 7b2e 283e f4e3 bc3e 28f8 83be da7d 3abe
00000090: f08c 2b3e 27e0 2f3e fd9a 003e 8926 bf3e
000000a0: c25f bb3e ff48 c13d a4ad 843e 8b67 f53d
000000b0: 7290 6fbb 6410 683e e328 03be 1bb7 243d
000000c0: f07e 4abc 5a14 5e3e be4c 1d3d a4a3 3f3e
000000d0: 9e41 77be 6a05 9bbe 2990 5bbd c152 6a3c
000000e0: 9234 08bc db37 93be 7c98 b23e bef1 aa3e
000000f0: 55b3 643d 2c5a fc3d 5f3f 803e 2670 1f3e

model.2.2.running_mean f4 [64]
0.11788081 0.4593395 0.03051642 0.4430931 0.9747307 0.10460842 0.4814044 0.38343605
0.036802165 0.3152846 0.26159906 0.43885875 0.06890987 0.030092223 0.03743265 0.025816567
0.010372842 0.050282303 0.61844975 0.027628621 0.53167236 0.19143166 0.73810744 0.063595265
0.40713367 0.10133864 0.45041594 0.026208984 0.16403654 0.028311856 0.15248768 0.17429778
0.31896773 0.32614893 0.01684732 0.18705384 0.70509106 0.4153721 0.3938066 0.98956245
0.46107295 0.52513 0.37953374 0.09805954 0.31751105 0.48196796 0.5248097 0.42123547
0.2593888 0.54877293 0.23308015 1.6613172 0.08301408 0.024885485 0.53586864 0.29443827
0.04027045 0.04627606 0.38390535 0.3161521 0.5209683 0.32455802 0.52153504 0.23964527
00000000: 7e6b f13d 8c2e eb3e 92fd f93c 19dd e23e
00000010: f387 793f f03c d63d a37a f63e bb51 c43e
00000020: debd 163d fc6c a13e 50f0 853e 18b2 e03e
00000030: 9e20 8d3d f783 f63c fa52 193d 447d d33c
00000040: daf2 293c d1f4 4d3d b952 1e3f 6b55 e23c
00000050: ae1b 083f a906 443e 9cf4 3c3f 3c3e 823d
00000060: d373 d03e a28a cf3d eb9c e63e 39b4 d63c
00000070: 32f9 273e 44ee e73c bb25 1c3e 1e7b 323e
00000080: bd4f a33e fefc a63e 6403 8a3c 0b8b 3f3e
00000090: d980 343f a7ab d43e 05a1 c93e f753 7d3f
000000a0: c111 ec3e eb6e 063f 3f52 c23e 71d3 c83d
000000b0: cf90 a23e 81c4 f63e ee59 063f 2dac d73e
000000c0: 9cce 843e 627c 0c3f 90ac 6e3e 0ba6 d43f
000000d0: 4903 aa3d a5dc cb3c b02e 093f 9dc0 963e
000000e0: a1f2 243d f78b 3d3d 3e8f c43e b0de a13e
000000f0: 2e5e 053f 782c a63e 5283 053f 9265 753e

model.2.2.running_var f4 [64]
0.14054942 1.7312363 0.58321345 0.35390317 1.3296598 2.8293796 0.9446309 3.1696148
0.03664462 0.55372936 0.5921959 0.35354814 1.2826742 0.5651535 0.6611775 0.43446648
0.14456718 1.0357138 5.2151747 0.4443617 0.35162893 0.5763855 2.5644383 1.4290763
1.0189414 0.71570116 4.598331 0.034582403 3.6017766 0.49838972 1.0707202 0.5441874
3.351293 0.64084303 0.25163215 0.24104656 2.1574438 4.1329374 1.4479645 1.309717
0.45825604 0.8034392 1.7528392 0.11564137 1.0198519 0.8567211 1.0487065 3.1408746
0.7505571 1.0642122 0.82865787 4.419545 1.8675952 0.41939795 0.94151723 6.930135
0.6836934 0.9339731 1.8931459 0.6009921 2.3494732 3.786393 0.611507 0.6328059
00000000: 30ec 0f3e 2799 dd3f 7a4d 153f cc32 b53e
00000010: 4b32 aa3f 8e14 3540 55d3 713f f8da 4a40
00000020: ab18 163d 35c1 0d3f 279a 173f 4304 b53e
00000030: ab2e a43f e6ad 103f ee42 293f 6472 de3e
00000040: 6b09 143e 4592 843f b6e2 a640 6083 e33e
00000050: b508 b43e 008e 133f c21f 2440 f9eb b63f
00000060: ac6c 823f 3138 373f 8725 9340 47a6 0d3d
00000070: 8283 6640 f02c ff3e 5c0d 893f de4f 0b3f
00000080: 967b 5640 4a0e 243f eed5 803e e9d4 763e
00000090: 8f13 0a40 0641 8440 e756 b93f cfa4 a73f
000000a0: 89a0 ea3e 31ae 4d3f 095d e03f 62d5 ec3d
000000b0: 828a 823f 1352 5b3f 043c 863f 1704 4940
000000c0: 8324 403f 1b38 883f ec22 543f ea6c 8d40
000000d0: 5c0d ef3f 54bb d63e 4607 713f aac3 dd40
000000e0: 8806 2f3f dc18 6f3f 9b52 f23f 9eda 193f
000000f0: c55d 1640 4354 7240 b98b 1c3f 91ff 213f

model.3.0.weight f4 [128, 64, 3, 3]
0.053555816 0.024306828 -0.0077296086 0.026851462 0.067244306 0.09233055 0.02792107 0.046749722
0.050689675 -0.0045190896 -0.017369498 -0.077374704 -0.011778037 -0.0005436225 -0.06812492 -0.06387062
-0.048443317 -0.010308459 -0.029122902 -0.03286477 -0.06935562 -0.06331879 -0.0616394 -0.004192028
-0.048413116 -0.02724133 -0.05015752 0.046302807 0.03343205 0.045758467 0.09101383 0.040272657
-0.01766178 0.05771447 -0.0073769763 0.053799935 -0.051079117 -0.024045564 0.026663054 -0.024812795
-0.059335247 0.01692017 -0.01742079 -0.051907014 0.03572896 -0.012755837 -0.02715688 0.016827833
0.0023482593 -0.030326774 -0.03961339 0.020611294 0.022059415 -0.038708907 -0.07748558 -0.072882734
-0.10289872 -0.08644094 -0.06891756 -0.078885674 -0.009637177 -0.09816385 -0.023166135 0.058067832
0.01141598 -0.006112389 0.016023764 -0.047301453 -0.047486234 -0.049470052 -0.06538148 -0.04802298
-0.050800167 -0.052043572 -0.009826327 0.005819946 -0.01100783 -0.014377524 -0.012409251 -0.0851477
-0.02565405 -0.055834167 -0.073456824 -0.02345263 -0.01355894 -0.027688446 -0.04189988 -0.021083482
-0.010574851 0.021294171 -0.039425697 -0.0639563 -0.05683483 -0.03640083 -0.061037045 -0.07109692
-0.057123467 -0.052475423 -0.095707655 0.042230893 0.03778748 0.017706683 0.03323666 0.061185975
-0.0017907566 -0.040533934 -0.037059836 0.018593093 -0.005701452 -0.085742034 -0.0588267 0.0037022317
-0.04426046 -0.04135712 -0.014593058 -0.02778301 -0.022560468 -0.0509043 -0.05848961 -0.06463659
-0.04168895 -0.013086949 -0.01568356 0.009934603 -0.013295791 -0.052465104 -0.0031351584 0.012216732
0.020471035 -0.047579832 -0.008618197 0.025918096 -0.03136869 -0.038231067 -0.011671192 0.004813371
-0.0013331866 0.0019187353 -0.020601233 -0.059304588 -0.0520581 0.0069081895 -0.03457379 0.01823154
-0.0037944093 -0.017489165 -0.047105707 -0.039676435 -0.081453644 -0.003925348 -0.03667594 -0.02305083
-0.05109428 -0.060789686 -0.060363296 0.0064372597 -0.035718195 0.009664332 0.0111824805 0.008501614
-0.07084301 -0.019429699 -0.037419356 -0.03496429 -0.01815485 -0.055853985 -0.003850778 0.012866206
-0.06783163 -0.056889467 0.0020146312 -0.024112161 -0.02772572 -0.050941713 0.015236227 -0.018911866
0.0139497975 -0.021706777 -0.06116012 -0.05256457 -0.024028175 0.061238844 0.06539394 -0.014016341
0.03579522 0.029254805 -0.0069571934 -0.004201201 0.055680316 0.047463726 -0.052736297 0.046472665
0.0044217273 -0.026141614 -0.019390142 -0.03883676 -0.046436597 -0.018246124 -0.019704476 -0.076335765
-0.018177386 -0.0637252 -0.053893436 -0.017829431 -0.026025776 -0.041007284 -0.0336782 -0.077936746
-0.03211248 -0.044930782 -0.073480874 -0.028034436 -0.07523718 -0.057630178 -0.0095817745 0.0039870907
0.0055110673 -0.08977637 -0.026574196 -0.07233419 -0.062568046 -0.04148165 -0.049200222 -0.02606956
-0.020054588 -0.080985114 -0.021168424 0.024476372 -0.018688744 -0.050894044 -0.027266463 -0.042063136
-0.09556834 0.013472388 -0.025449732 -0.038766757 -0.0037053558 -0.049174827 -0.038587388 -0.023790728
0.010486868 -0.038243297 0.020688822 -0.026777793 -0.025578247 0.018794078 -0.10057027 -0.018545298
-0.013756576 -0.029919479 -0.075010665 -0.017756803 -0.03957686 -0.058426503 -0.03912643 -0.021321269
00000000: 585d 5b3d 1d1f c73c a848 fdbb 99f7 db3c
00000010: 62b7 893d cd17 bd3d baba e43c a37c 3f3d
00000020: fa9f 4f3d df14 94bb 7a4a 8ebc a176 9ebd
00000030: abf8 40bc e381 0eba 1485 8bbd 9ace 82bd
00000040: 806c 46bd d0e4 28bc 2793 eebc 369d 06bd
00000050: 520a 8ebd 48ad 81bd 9879 7cbd 485d 89bb
00000060: d54c 46bd 3629 dfbc f971 4dbd 03a8 3d3d
00000070: 0cf0 083d 3b6d 3b3d 7565 ba3d f1f4 243d
00000080: 70af 90bc 0266 6c3d 90ba f1bb 525d 5c3d
00000090: 5638 51bd 34fb c4bc 7a6c da3c 3444 cbbc
000000a0: 8409 73bd 2b9c 8a3c 0bb6 8ebc 739c 54bd
000000b0: 8858 123d dcfd 50bc 1b78 debc 86da 893c
000000c0: 41e5 193b db6f f8bc a641 22bd 04d9 a83c
000000d0: f2b5 b43c 3b8d 1ebd c3b0 9ebd 8b43 95bd
000000e0: 90bc d2bd f307 b1bd a624 8dbd d08e a1bd
000000f0: 40e5 1dbc 210a c9bd e8c6 bdbc 89d8 6d3d
00000100: 170a 3b3c 6f4a c8bb 4544 833c 2bbf 41bd
00000110: ed80 42bd 1ca1 4abd bae6 85bd bfb3 44bd
00000120: d613 50bd a42b 55bd 9afe 20bc 3fb5 be3b
00000130: 2f5a 34bc b58f 6bbc 2c50 4bbc eb61 aebd
00000140: 7128 d2bc 5eb2 64bd 8870 96bd bb1f c0bc
00000150: 5126 5ebc e1d2 e2bc 359f 2bbd 44b7 acbc
00000160: 2442 2dbc 1d71 ae3c d77c 21bd 85fb 82bd
00000170: a4cb 68bd 0919 15bd fb01 7abd 439b 91bd
00000180: 4cfa 69bd 78f0 56bd 6002 c4bd 4dfa 2c3d
00000190: 0bc7 1a3d 9b0d 913c 2a23 083d 259e 7a3d
000001a0: d2b7 eaba e906 26bd 0ecc 17bd 8b50 983c
000001b0: 3fd3 babb 8599 afbd 44f4 70bd 24a1 723b
000001c0: 754a 35bd 1566 29bd b917 6fbc 3299 e3bc
000001d0: bbd0 b8bc 0781 50bd cd92 6fbd 3060 84bd
000001e0: 08c2 2abd a46a 56bc cf7a 80bc bfc4 223c
000001f0: 97d6 59bc a6e5 56bd 3b77 4dbb b028 483c
00000200: dfb2 a73c 12e3 42bd 5733 0dbc 3052 d43c
00000210: 757c 00bd 2e98 1cbd 8738 3fbc 7cb9 9d3b
00000220: 52be aeba 137e fb3a ebc3 a8bc 5ee9 72bd
00000230: e03a 55bd 185e e23b 3f9d 0dbd 505a 953c
00000240: a0ab 78bb 7045 8fbc eaf1 40bd c283 22bd
00000250: 2bd1 a6bd 35a0 80bb 8339 16bd 18d5 bcbc
00000260: 3c48 51bd 9bfe 78bd 813f 77bd a6ef d23b
00000270: 3e4d 12bd 2557 1e3c b936 373c 5b4a 0b3c
00000280: 2416 91bd 082b 9fbc 0a45 19bd b736 0fbd
00000290: 7bb9 94bc 26c7 64bd 565d 7cbb c7cc 523c
000002a0: 4feb 8abd ee04 69bd e707 043b de86 c5bc
000002b0: 0d21 e3bc 42a8 50bd 5ea1 793c 0fed 9abc
000002c0: b18d 643c 69d2 b1bc 0983 7abd f24d 57bd
000002d0: bcd6 c4bc 95d5 7a3d 42ed 853d cca4 65bc
000002e0: 029e 123d c6a7 ef3c 2bf9 e3bb 3aaa 89bb
000002f0: 0b11 643d 5369 423d 0402 58bd 1f5a 3e3d
00000300: 23e4 903b f026 d6bc 13d8 9ebc 4b13 1fbd
00000310: 4d34 3ebd e578 95bc 486b a1bc ed55 9cbd
00000320: bee8 94bc 5c82 82bd 5dbf 5cbd 070f 92bc
00000330: 0234 d5bc 41f7 27bd 27f2 09bd 4d9d 9fbd
00000340: 6088 03bd 5709 38bd 247d 96bd 79a8 e5bc
00000350: f315 9abd 9f0d 6cbd e0fc 1cbc 24a6 823b
00000360: 2f96 b43b acdc b7bd 21b2 d9bc f323 94bd
00000370: ad23 80bd aae8 29bd 2c86 49bd d48f d5bc
00000380: 8549 a4bc 86db a5bd 6769 adbc ac82 c83c
00000390: 2319 99bc 4676 50bd eb5d dfbc 654a 2cbd
000003a0: 55b9 c3bd 4abb 5c3c f57b d0bc e4c9 1ebd
000003b0: 8ed5 72bb 8b6b 49bd cf0d 1ebd c6e4 c2bc
000003c0: 1dd1 2b3c 01a5 1cbd 9b7b a93c 1a5d dbbc
000003d0: 7989 d1bc 0af6 993c c9f7 cdbd 4fec 97bc
000003e0: 4363 61bc b219 f5bc 319f 99bd b776 91bc
000003f0: 581b 22bd a150 6fbd 0943 20bd f1a9 aebc

model.3.0.bias f4 [128]
0.050928254 -0.123030476 -0.016101815 -0.11999368 -0.033840984 0.00517213 -0.12284611 -0.0072614853
-0.031596623 -0.087859266 -0.13970737 -0.14184442 -0.015049609 -0.09501366 -0.044593353 -0.10587062
-0.09586624 0.02722586 -0.06902829 -0.0013286362 -0.022801546 0.012183044 -0.06863342 0.012317906
-0.06306839 -0.20736492 -0.05254432 -0.057459738 -0.111453794 -0.07293116 -0.08224833 -0.12943493
-0.08016932 -0.11946138 -0.043356128 -0.049666967 0.11497033 -0.08411502 -0.096129686 -0.0638668
-0.08016191 -0.07792436 -0.026115214 -0.1058523 -0.06466679 -0.042997554 -0.062533714 -0.068817854
-0.056290723 -0.04780418 -0.032571163 -0.08570269 -0.09555519 -0.054279994 -0.136152 -0.10086975
-0.05671415 -0.046845622 -0.06026386 -0.057011437 -0.0748788 -0.0568229 -0.12654689 -0.12874594
-0.097437374 -0.12811983 -0.102616936 -0.08279305 -0.08654844 -0.12969525 -0.073182866 -0.08379975
-0.011114583 -0.02257202 -0.1342989 -0.036091626 -0.165172 -0.046839543 0.010197112 -0.036992785
-0.1119556 -0.037945706 -0.072799675 -0.038928814 -0.07485819 -0.14579916 -0.14662969 -0.0824662
0.036056552 -0.11019331 -0.040768556 -0.04464738 -0.031714648 -0.00045401714 -0.05888503 -0.13416748
-0.112148516 -0.07162715 -0.10036041 -0.076750375 -0.14418359 -0.12081267 -0.05106136 -0.029537672
-0.05977782 -0.052935947 -0.1366934 -0.09877016 -0.044549227 -0.114295766 -0.13300076 -0.15596865
-0.059311327 -0.06300921 -0.04602634 -0.10804567 -0.03041164 -0.1519356 -0.11569825 -0.036749203
-0.09402858 -0.0856257 -0.027793774 -0.073178016 -0.06961108 -0.08501839 -0.01715482 -0.020759506
00000000: 259a 503d 67f7 fbbd f4e7 83bc 3fbf f5bd
00000010: d89c 0abd f97a a93b be96 fbbd c1f1 edbb
00000020: 766b 01bd 8fef b3bd 730f 0fbe aa3f 11be
00000030: a392 76bc 8696 c2bd 85a7 36bd b2d2 d8bd
00000040: 8555 c4bd c408 df3c b45e 8dbd a225 aeba
00000050: 4fca babc 649b 473c ae8f 8cbd 0bd1 493c
00000060: 002a 81bd 7857 54be b638 57bd e75a 6bbd
00000070: e341 e4bd ef5c 95bd d071 a8bd 978a 04be
00000080: d02f a4bd 2ba8 f4bd 3296 31bd 976f 4bbd
00000090: 9075 eb3d 7f44 acbd a4df c4bd 99cc 82bd
000000a0: ed2b a4bd cf96 9fbd 93ef d5bc 17c9 d8bd
000000b0: 0670 84bd 341e 30bd ad11 80bd 60f0 8cbd
000000c0: 1a91 66bd 51ce 43bd 5769 05bd e484 afbd
000000d0: 71b2 c3bd b354 5ebd 6e6b 0bbe cd94 cebd
000000e0: 194d 68bd 32e1 3fbd 3dd7 76bd d384 69bd
000000f0: 0e5a 99bd 21bf 68bd 8295 01be fad5 03be
00000100: 3f8d c7bd d831 03be d428 d2bd 678f a9bd
00000110: 4f40 b1bd d5ce 04be e6e0 95bd 349f abbd
00000120: f119 36bc f5e8 b8bc a785 09be d0d4 13bd
00000130: d922 29be d2da 3fbd ca11 273c bf85 17bd
00000140: fa48 e5bd f56c 1bbd ff17 95bd d273 1fbd
00000150: 404f 99bd 604c 15be 1826 16be 0ae4 a8bd
00000160: 09b0 133d 08ad e1bd eefc 26bd 2ce0 36bd
00000170: 38e7 01bd 2609 eeb9 6e31 71bd 3363 09be
00000180: 1fae e5bd 41b1 92bd c289 cdbd 4d2f 9dbd
00000190: dda4 13be a26c f7bd b725 51bd fdf8 f1bc
000001a0: 96d9 74bd 5dd3 58bd 5bf9 0bbe 0248 cabd
000001b0: 4079 36bd e613 eabd 5a31 08be 3fb6 1fbe
000001c0: 6ff0 72bd f90a 81bd 1e86 3cbd 0c47 ddbd
000001d0: d521 f9bc 0295 1bbe 34f3 ecbd 5586 16bd
000001e0: 0e92 c0bd 875c afbd c5af e3bc 5bde 95bd
000001f0: 4190 8ebd 1f1e aebd 4488 8cbc d70f aabc

model.3.2.weight f4 [128]
0.6535551 0.7906638 0.7194583 0.6890807 0.5910619 0.70796514 0.8101767 0.72648776
0.79365444 0.6226422 0.64264005 0.7364312 0.84065634 0.68703616 0.8017842 0.7135895
0.8508961 0.8673283 0.7611498 0.7864769 0.80950236 0.39969647 0.6302129 0.8025681
0.8097633 0.77214265 0.7905106 0.7787354 0.76777416 0.8396368 0.7828661 0.65206474
0.6654185 0.69351065 0.81804824 0.6484043 0.79488975 0.5766729 0.68887293 0.72366655
0.7571967 0.68463486 0.75629276 0.6444122 0.7325148 0.7783539 0.6394068 0.7879503
0.75547576 0.6367078 0.73475933 0.6792509 0.78278846 0.7169203 0.73540306 0.7041582
0.6959987 0.6294943 0.6362298 0.805887 0.9121998 0.69853985 0.75377715 0.75724524
0.6449172 0.61142385 0.8762745 0.69085383 0.8903774 0.65665805 0.7538521 0.89667434
0.6865077 0.62833446 0.6949653 0.7029685 0.70109206 0.6919561 0.7680452 0.8362963
0.7616474 0.7283044 0.50758505 0.7572803 0.6884254 0.69652057 0.6508217 0.58382523
0.8004705 0.6216762 0.75264335 0.76730925 0.7000083 0.84626204 0.71579725 0.77026105
0.7753318 0.669424 0.65583575 0.73904157 0.54089576 0.66548645 0.6476529 0.69045365
0.6964716 0.70644855 0.74985147 0.67606825 0.78796643 0.7217081 0.7118657 0.6420737
0.8932567 0.49451324 0.65519536 0.7107517 0.89940727 0.7541191 0.67005783 0.722406
0.66821283 0.7413 0.7621402 0.74351674 0.65324056 0.658853 0.7646602 0.7286378
00000000: 634f 273f f168 4a3f 6b2e 383f 9867 303f
00000010: d54f 173f 343d 353f bd67 4f3f 1afb 393f
00000020: f02c 4b3f 7b65 1f3f 0f84 243f c186 3c3f
00000030: 4135 573f 9ae1 2f3f bb41 4d3f cdad 363f
00000040: 54d4 593f 3a09 5e3f b7da 423f 8d56 493f
00000050: 8c3b 4f3f 04a5 cc3e a255 213f 1a75 4d3f
00000060: a64c 4f3f 24ab 453f e75e 4a3f 345b 473f
00000070: d98c 443f 70f2 563f ea69 483f b7ed 263f
00000080: de58 2a3f ea89 313f 9c6b 513f d3fd 253f
00000090: e57d 4b3f d6a0 133f fa59 303f 3642 393f
000000a0: a5d7 413f 3b44 2f3f 679c 413f 33f8 243f
000000b0: 1786 3b3f 3442 473f 2ab0 233f 1cb7 493f
000000c0: dc66 413f 48ff 223f 3019 3c3f 63e3 2d3f
000000d0: d364 483f 1788 373f 6043 3c3f b643 343f
000000e0: f92c 323f 8a26 213f f5df 223f 9c4e 4e3f
000000f0: ed85 693f 82d3 323f 8af7 403f d3da 413f
00000100: 4b19 253f 4686 1c3f 8753 603f ccdb 303f
00000110: c6ef 633f be1a 283f 74fc 403f 738c 653f
00000120: f8be 2f3f 87da 203f 3fe9 313f bef5 333f
00000130: c57a 333f 0924 313f 9c9e 443f 8417 563f
00000140: 53fb 423f 2872 3a3f 18f1 013f 1fdd 413f
00000150: a63c 303f 2c4f 323f 409c 263f 9275 153f
00000160: a2eb 4c3f 2c26 1f3f 3cad 403f 616e 443f
00000170: be33 333f a1a4 583f 7d3e 373f d42f 453f
00000180: 257c 463f 5f5f 2b3f dae4 273f d431 3d3f
00000190: 2578 0a3f 525d 2a3f 95cc 253f 92c1 303f
000001a0: f64b 323f d0d9 343f 44f6 3f3f cf12 2d3f
000001b0: 2bb8 493f ddc1 383f d53c 363f f15e 243f
000001c0: 79ac 643f d730 fd3e e2ba 273f d3f3 353f
000001d0: 8e3f 663f f30d 413f e988 2b3f 9aef 383f
000001e0: ff0f 2b3f d6c5 3d3f 9f1b 433f 1d57 3e3f
000001f0: c63a 273f 97aa 283f c5c0 433f 0288 3a3f

model.3.2.bias f4 [128]
-0.0062112473 -0.009113449 0.031423848 0.027002117 0.0194087 0.018799054 0.025484346 0.011617748
-0.026727902 0.026772339 0.014024359 0.025017468 0.012752732 0.022985272 -0.00046362553 0.029607134
0.0024502794 -0.020761598 0.019822773 -0.0420023 -0.04147238 0.019112866 0.031510454 -0.030939046
0.0142225055 0.027410906 0.022352118 0.026035346 0.024457166 0.020240927 0.02050639 0.02250902
0.031105785 0.028774235 0.0155248055 0.017837787 -0.0843531 0.012454358 0.016914176 0.028486758
0.024640417 0.030624855 -0.010687648 0.03376711 0.028047936 0.033430345 0.0029455516 -0.0029341218
0.03331216 0.022733847 0.026954666 0.034900572 0.024691038 0.013593165 0.02584556 0.030308591
0.028077807 0.025217105 0.030364914 -0.02134834 -0.0147733465 0.027977323 0.033524744 0.025675394
0.013536313 0.029381467 -0.030102925 0.028661836 0.0068349456 0.018956242 0.0257046 -0.014005558
0.021873346 0.032840356 0.030329075 0.031037908 0.030801041 0.02518426 0.009771635 -0.08641074
0.021379787 0.02283012 0.022205863 0.027419435 0.019631723 0.017853035 0.027173843 0.034723215
-0.046242014 0.026893727 0.030208651 0.01801137 0.028125469 -0.018922377 0.015537804 0.022886408
0.016778363 0.020483503 0.02536633 0.02809697 0.013523424 0.0310697 0.0234117 0.015865657
0.024405668 0.024019223 0.02329906 0.017613648 0.02760858 0.030659586 0.026224392 0.030416997
0.011027546 -0.021536032 0.012817308 0.027009016 -0.07039352 0.022609716 0.020133158 0.005657393
0.02284907 0.031512693 0.0043316656 0.018636843 0.02789961 0.013912496 0.029459663 -0.0024233893
00000000: b887 cbbb 9350 15bc 4bb6 003d 8b33 dd3c
00000010: fefe 9e3c 7900 9a3c 8cc4 d03c 5e58 3e3c
00000020: 79f4 dabc aa51 db3c 6dc6 653c 6ff1 cc3c
00000030: d6f0 503c 9c4b bc3c c412 f3b9 a98a f23c
00000040: de94 203b 3a14 aabc 5e63 a23c 9b0a 2cbd
00000050: f1de 29bd 9692 9c3c 1b11 013d e273 fdbc
00000060: 8305 693c d68c e03c ca1b b73c 1448 d53c
00000070: 655a c83c 4dd0 a53c 04fd a73c d664 b83c
00000080: 8fd1 fe3c f2b7 eb3c c15b 7e3c 8d20 923c
00000090: 51c1 acbd 5d0d 4c3c 998f 8a3c 105d e93c
000000a0: b3da c93c fae0 fa3c 3f1b 2fbc 624f 0a3d
000000b0: c9c4 e53c 42ee 083d 280a 413b 654a 40bb
000000c0: 5572 083d 553c ba3c 08d0 dc3c e7f3 0e3d
000000d0: dc44 ca3c deb5 5e3c 11ba d33c b949 f83c
000000e0: 6e03 e63c 1a94 ce3c d7bf f83c b7e2 aebc
000000f0: e80b 72bc b330 e53c 3e51 093d 3455 d23c
00000100: 69c7 5d3c 67b1 f03c 699a f6bc 3acc ea3c
00000110: aef7 df3b 1f4a 9b3c 7492 d23c 9177 65bc
00000120: bb2f b33c 9c83 063d ae74 f83c 3643 fe3c
00000130: 7752 fc3c 394f ce3c 3519 203c 1df8 b0bd
00000140: aa24 af3c 3b06 bb3c 12e9 b53c b99e e03c
00000150: b5d2 a03c 8740 923c ae9b de3c ee39 0e3d
00000160: 4468 3dbd 3c50 dc3c 2278 f73c 958c 933c
00000170: 6267 e63c 1a03 9bbc 4692 7e3c 477c bb3c
00000180: c772 893c 05cd a73c 0dcd cf3c 9e2b e63c
00000190: 5a91 5d3c e285 fe3c e5c9 bf3c b2f8 813c
000001a0: 65ee c73c f6c3 c43c acdd be3c 7f4a 903c
000001b0: 642b e23c d029 fb3c 89d4 d63c 112d f93c
000001c0: e1ac 343c 556c b0bc b0ff 513c 0342 dd3c
000001d0: 7a2a 90bd 0338 b93c 4bee a43c a761 b93b
000001e0: f92d bb3c 7413 013d a5f0 8d3b 4bac 983c
000001f0: b98d e43c 3df1 633c 6455 f13c bad1 1ebb
